#loc = loc("/usr/local/lib/python3.12/dist-packages/vllm/models/minimax_m3/common/ops/sparse_attn.py":388:0)
#loc20 = loc("/usr/local/lib/python3.12/dist-packages/vllm/models/minimax_m3/common/ops/sparse_attn.py":427:21)
#loc21 = loc(unknown)
#loc26 = loc("/usr/local/lib/python3.12/dist-packages/vllm/models/minimax_m3/common/ops/sparse_attn.py":429:31)
#loc31 = loc("/usr/local/lib/python3.12/dist-packages/vllm/models/minimax_m3/common/ops/sparse_attn.py":430:22)
#loc41 = loc("o_ptr"(#loc))
#loc42 = loc("lse_ptr"(#loc))
#loc43 = loc("out_ptr"(#loc))
#loc44 = loc("head_dim"(#loc))
#loc45 = loc("stride_o_c"(#loc))
#loc46 = loc("stride_o_b"(#loc))
#loc47 = loc("stride_o_h"(#loc))
#loc48 = loc("stride_l_c"(#loc))
#loc49 = loc("stride_l_b"(#loc))
#loc50 = loc("stride_out_n"(#loc))
#loc51 = loc("stride_out_h"(#loc))
#loc66 = loc("lse_max"(#loc20))
#loc69 = loc("weights"(#loc26))
#loc73 = loc("o_merged"(#loc31))
#loc80 = loc(callsite(#loc21 at #loc66))
#loc82 = loc(callsite(#loc21 at #loc69))
#loc84 = loc(callsite(#loc21 at #loc73))
module {
  tt.func public @_merge_topk_attn_out_kernel(%o_ptr: !tt.ptr<bf16> {tt.divisibility = 16 : i32} loc("o_ptr"(#loc)), %lse_ptr: !tt.ptr<f32> {tt.divisibility = 16 : i32} loc("lse_ptr"(#loc)), %out_ptr: !tt.ptr<bf16> {tt.divisibility = 16 : i32} loc("out_ptr"(#loc)), %head_dim: i32 {tt.divisibility = 16 : i32} loc("head_dim"(#loc)), %stride_o_c: i32 {tt.divisibility = 16 : i32} loc("stride_o_c"(#loc)), %stride_o_b: i32 {tt.divisibility = 16 : i32} loc("stride_o_b"(#loc)), %stride_o_h: i32 {tt.divisibility = 16 : i32} loc("stride_o_h"(#loc)), %stride_l_c: i32 {tt.divisibility = 16 : i32} loc("stride_l_c"(#loc)), %stride_l_b: i32 {tt.divisibility = 16 : i32} loc("stride_l_b"(#loc)), %stride_out_n: i32 {tt.divisibility = 16 : i32} loc("stride_out_n"(#loc)), %stride_out_h: i32 {tt.divisibility = 16 : i32} loc("stride_out_h"(#loc))) attributes {noinline = false} {
    %o = arith.constant dense<0.000000e+00> : tensor<16x128xbf16> loc(#loc52)
    %o_0 = arith.constant dense<0> : tensor<1x128xi64> loc(#loc52)
    %o_1 = arith.constant dense<16> : tensor<16x1xi64> loc(#loc52)
    %o_2 = arith.constant dense<0> : tensor<16x1xi64> loc(#loc52)
    %0 = tt.get_program_id x : i32 loc(#loc2)
    %1 = tt.get_program_id y : i32 loc(#loc3)
    %2 = tt.elementwise_inline_asm "griddepcontrol.wait; // dummy $0" {constraints = "=r", packed_element = 1 : i32, pure = false} -> i32 loc(#loc4)
    %3 = tt.elementwise_inline_asm "griddepcontrol.launch_dependents; // dummy $0" {constraints = "=r", packed_element = 1 : i32, pure = false} -> i32 loc(#loc5)
    %off_c = tt.make_range {end = 16 : i32, start = 0 : i32} : tensor<16xi32> loc(#loc53)
    %off_d = tt.make_range {end = 128 : i32, start = 0 : i32} : tensor<128xi32> loc(#loc54)
    %o_ptrs = arith.muli %0, %stride_o_b : i32 loc(#loc55)
    %o_ptrs_3 = tt.addptr %o_ptr, %o_ptrs : !tt.ptr<bf16>, i32 loc(#loc56)
    %o_ptrs_4 = arith.muli %1, %stride_o_h : i32 loc(#loc57)
    %o_ptrs_5 = tt.addptr %o_ptrs_3, %o_ptrs_4 : !tt.ptr<bf16>, i32 loc(#loc58)
    %o_ptrs_6 = arith.extsi %head_dim : i32 to i64 loc(#loc59)
    %o_ptrs_7 = arith.extsi %stride_o_c : i32 to i64 loc(#loc59)
    %lse_ptrs = arith.muli %0, %stride_l_b : i32 loc(#loc60)
    %lse_ptrs_8 = tt.addptr %lse_ptr, %lse_ptrs : !tt.ptr<f32>, i32 loc(#loc61)
    %lse_ptrs_9 = tt.addptr %lse_ptrs_8, %1 : !tt.ptr<f32>, i32 loc(#loc62)
    %lse_ptrs_10 = tt.splat %stride_l_c : i32 -> tensor<16xi32> loc(#loc63)
    %lse_ptrs_11 = arith.muli %off_c, %lse_ptrs_10 : tensor<16xi32> loc(#loc63)
    %lse_ptrs_12 = tt.splat %lse_ptrs_9 : !tt.ptr<f32> -> tensor<16x!tt.ptr<f32>> loc(#loc64)
    %lse_ptrs_13 = tt.addptr %lse_ptrs_12, %lse_ptrs_11 : tensor<16x!tt.ptr<f32>>, tensor<16xi32> loc(#loc64)
    %o_14 = tt.splat %o_ptrs_5 : !tt.ptr<bf16> -> tensor<16x128x!tt.ptr<bf16>> loc(#loc52)
    %o_15 = arith.extsi %off_c : tensor<16xi32> to tensor<16xi64> loc(#loc52)
    %o_16 = tt.expand_dims %o_15 {axis = 1 : i32} : tensor<16xi64> -> tensor<16x1xi64> loc(#loc52)
    %o_17 = tt.splat %o_ptrs_7 : i64 -> tensor<16x1xi64> loc(#loc52)
    %o_18 = arith.muli %o_16, %o_17 : tensor<16x1xi64> loc(#loc52)
    %o_19 = tt.broadcast %o_18 : tensor<16x1xi64> -> tensor<16x128xi64> loc(#loc52)
    %o_20 = arith.extsi %off_d : tensor<128xi32> to tensor<128xi64> loc(#loc52)
    %o_21 = tt.expand_dims %o_20 {axis = 0 : i32} : tensor<128xi64> -> tensor<1x128xi64> loc(#loc52)
    %o_22 = tt.broadcast %o_21 : tensor<1x128xi64> -> tensor<16x128xi64> loc(#loc52)
    %o_23 = arith.addi %o_19, %o_22 : tensor<16x128xi64> loc(#loc52)
    %o_24 = tt.addptr %o_14, %o_23 : tensor<16x128x!tt.ptr<bf16>>, tensor<16x128xi64> loc(#loc52)
    %o_25 = arith.cmpi sge, %o_16, %o_2 : tensor<16x1xi64> loc(#loc52)
    %o_26 = arith.cmpi slt, %o_16, %o_1 : tensor<16x1xi64> loc(#loc52)
    %o_27 = arith.andi %o_25, %o_26 : tensor<16x1xi1> loc(#loc52)
    %o_28 = tt.broadcast %o_27 : tensor<16x1xi1> -> tensor<16x128xi1> loc(#loc52)
    %o_29 = arith.cmpi sge, %o_21, %o_0 : tensor<1x128xi64> loc(#loc52)
    %o_30 = tt.splat %o_ptrs_6 : i64 -> tensor<1x128xi64> loc(#loc52)
    %o_31 = arith.cmpi slt, %o_21, %o_30 : tensor<1x128xi64> loc(#loc52)
    %o_32 = arith.andi %o_29, %o_31 : tensor<1x128xi1> loc(#loc52)
    %o_33 = tt.broadcast %o_32 : tensor<1x128xi1> -> tensor<16x128xi1> loc(#loc52)
    %o_34 = arith.andi %o_28, %o_33 : tensor<16x128xi1> loc(#loc52)
    %o_35 = tt.load %o_24, %o_34, %o : tensor<16x128x!tt.ptr<bf16>> loc(#loc52)
    %lse = tt.load %lse_ptrs_13 : tensor<16x!tt.ptr<f32>> loc(#loc65)
    %lse_max = "tt.reduce"(%lse) <{axis = 0 : i32}> ({
    ^bb0(%lse_max_50: f32 loc(callsite(#loc21 at #loc66)), %lse_max_51: f32 loc(callsite(#loc21 at #loc66))):
      %lse_max_52 = arith.maxnumf %lse_max_50, %lse_max_51 : f32 loc(#loc85)
      tt.reduce.return %lse_max_52 : f32 loc(#loc79)
    }) : (tensor<16xf32>) -> f32 loc(#loc79)
    %weights = tt.splat %lse_max : f32 -> tensor<16xf32> loc(#loc67)
    %weights_36 = arith.subf %lse, %weights : tensor<16xf32> loc(#loc67)
    %weights_37 = math.exp2 %weights_36 : tensor<16xf32> loc(#loc68)
    %weights_38 = "tt.reduce"(%weights_37) <{axis = 0 : i32}> ({
    ^bb0(%weights_50: f32 loc(callsite(#loc21 at #loc69)), %weights_51: f32 loc(callsite(#loc21 at #loc69))):
      %weights_52 = arith.addf %weights_50, %weights_51 : f32 loc(#loc86)
      tt.reduce.return %weights_52 : f32 loc(#loc81)
    }) : (tensor<16xf32>) -> f32 loc(#loc81)
    %weights_39 = tt.splat %weights_38 : f32 -> tensor<16xf32> loc(#loc70)
    %weights_40 = arith.divf %weights_37, %weights_39 : tensor<16xf32> loc(#loc70)
    %o_merged = tt.expand_dims %weights_40 {axis = 1 : i32} : tensor<16xf32> -> tensor<16x1xf32> loc(#loc71)
    %o_merged_41 = arith.extf %o_35 : tensor<16x128xbf16> to tensor<16x128xf32> loc(#loc72)
    %o_merged_42 = tt.broadcast %o_merged : tensor<16x1xf32> -> tensor<16x128xf32> loc(#loc72)
    %o_merged_43 = arith.mulf %o_merged_41, %o_merged_42 : tensor<16x128xf32> loc(#loc72)
    %o_merged_44 = "tt.reduce"(%o_merged_43) <{axis = 0 : i32}> ({
    ^bb0(%o_merged_50: f32 loc(callsite(#loc21 at #loc73)), %o_merged_51: f32 loc(callsite(#loc21 at #loc73))):
      %o_merged_52 = arith.addf %o_merged_50, %o_merged_51 : f32 loc(#loc87)
      tt.reduce.return %o_merged_52 : f32 loc(#loc83)
    }) : (tensor<16x128xf32>) -> tensor<128xf32> loc(#loc83)
    %out_ptrs = arith.muli %0, %stride_out_n : i32 loc(#loc74)
    %out_ptrs_45 = tt.addptr %out_ptr, %out_ptrs : !tt.ptr<bf16>, i32 loc(#loc75)
    %out_ptrs_46 = arith.muli %1, %stride_out_h : i32 loc(#loc76)
    %out_ptrs_47 = tt.addptr %out_ptrs_45, %out_ptrs_46 : !tt.ptr<bf16>, i32 loc(#loc77)
    %out_ptrs_48 = tt.splat %out_ptrs_47 : !tt.ptr<bf16> -> tensor<128x!tt.ptr<bf16>> loc(#loc78)
    %out_ptrs_49 = tt.addptr %out_ptrs_48, %off_d : tensor<128x!tt.ptr<bf16>>, tensor<128xi32> loc(#loc78)
    %4 = tt.splat %head_dim : i32 -> tensor<128xi32> loc(#loc37)
    %5 = arith.cmpi slt, %off_d, %4 : tensor<128xi32> loc(#loc37)
    %6 = arith.truncf %o_merged_44 : tensor<128xf32> to tensor<128xbf16> loc(#loc38)
    tt.store %out_ptrs_49, %6, %5 : tensor<128x!tt.ptr<bf16>> loc(#loc39)
    tt.return loc(#loc40)
  } loc(#loc)
} loc(#loc)
#loc1 = loc("/usr/local/lib/python3.12/dist-packages/vllm/models/minimax_m3/common/ops/sparse_attn.py":425:16)
#loc2 = loc("/usr/local/lib/python3.12/dist-packages/vllm/models/minimax_m3/common/ops/sparse_attn.py":407:33)
#loc3 = loc("/usr/local/lib/python3.12/dist-packages/vllm/models/minimax_m3/common/ops/sparse_attn.py":407:51)
#loc4 = loc("/usr/local/lib/python3.12/dist-packages/vllm/models/minimax_m3/common/ops/sparse_attn.py":411:8)
#loc5 = loc("/usr/local/lib/python3.12/dist-packages/vllm/models/minimax_m3/common/ops/sparse_attn.py":412:8)
#loc6 = loc("/usr/local/lib/python3.12/dist-packages/vllm/models/minimax_m3/common/ops/sparse_attn.py":414:25)
#loc7 = loc("/usr/local/lib/python3.12/dist-packages/vllm/models/minimax_m3/common/ops/sparse_attn.py":415:25)
#loc8 = loc("/usr/local/lib/python3.12/dist-packages/vllm/models/minimax_m3/common/ops/sparse_attn.py":417:29)
#loc9 = loc("/usr/local/lib/python3.12/dist-packages/vllm/models/minimax_m3/common/ops/sparse_attn.py":417:21)
#loc10 = loc("/usr/local/lib/python3.12/dist-packages/vllm/models/minimax_m3/common/ops/sparse_attn.py":417:50)
#loc11 = loc("/usr/local/lib/python3.12/dist-packages/vllm/models/minimax_m3/common/ops/sparse_attn.py":417:42)
#loc12 = loc("/usr/local/lib/python3.12/dist-packages/vllm/models/minimax_m3/common/ops/sparse_attn.py":422:8)
#loc13 = loc("/usr/local/lib/python3.12/dist-packages/vllm/models/minimax_m3/common/ops/sparse_attn.py":424:33)
#loc14 = loc("/usr/local/lib/python3.12/dist-packages/vllm/models/minimax_m3/common/ops/sparse_attn.py":424:25)
#loc15 = loc("/usr/local/lib/python3.12/dist-packages/vllm/models/minimax_m3/common/ops/sparse_attn.py":424:46)
#loc16 = loc("/usr/local/lib/python3.12/dist-packages/vllm/models/minimax_m3/common/ops/sparse_attn.py":424:75)
#loc17 = loc("/usr/local/lib/python3.12/dist-packages/vllm/models/minimax_m3/common/ops/sparse_attn.py":424:67)
#loc18 = loc("/usr/local/lib/python3.12/dist-packages/vllm/models/minimax_m3/common/ops/sparse_attn.py":426:18)
#loc19 = loc("/usr/local/lib/python3.12/dist-packages/triton/language/standard.py":191:40)
#loc22 = loc("/usr/local/lib/python3.12/dist-packages/triton/language/standard.py":170:27)
#loc23 = loc("/usr/local/lib/python3.12/dist-packages/vllm/models/minimax_m3/common/ops/sparse_attn.py":428:28)
#loc24 = loc("/usr/local/lib/python3.12/dist-packages/vllm/models/minimax_m3/common/ops/sparse_attn.py":428:22)
#loc25 = loc("/usr/local/lib/python3.12/dist-packages/triton/language/standard.py":293:36)
#loc27 = loc("/usr/local/lib/python3.12/dist-packages/triton/language/standard.py":263:15)
#loc28 = loc("/usr/local/lib/python3.12/dist-packages/vllm/models/minimax_m3/common/ops/sparse_attn.py":429:24)
#loc29 = loc("/usr/local/lib/python3.12/dist-packages/vllm/models/minimax_m3/common/ops/sparse_attn.py":430:34)
#loc30 = loc("/usr/local/lib/python3.12/dist-packages/vllm/models/minimax_m3/common/ops/sparse_attn.py":430:26)
#loc32 = loc("/usr/local/lib/python3.12/dist-packages/vllm/models/minimax_m3/common/ops/sparse_attn.py":432:26)
#loc33 = loc("/usr/local/lib/python3.12/dist-packages/vllm/models/minimax_m3/common/ops/sparse_attn.py":432:18)
#loc34 = loc("/usr/local/lib/python3.12/dist-packages/vllm/models/minimax_m3/common/ops/sparse_attn.py":432:49)
#loc35 = loc("/usr/local/lib/python3.12/dist-packages/vllm/models/minimax_m3/common/ops/sparse_attn.py":432:41)
#loc36 = loc("/usr/local/lib/python3.12/dist-packages/vllm/models/minimax_m3/common/ops/sparse_attn.py":432:64)
#loc37 = loc("/usr/local/lib/python3.12/dist-packages/vllm/models/minimax_m3/common/ops/sparse_attn.py":434:75)
#loc38 = loc("/usr/local/lib/python3.12/dist-packages/vllm/models/minimax_m3/common/ops/sparse_attn.py":434:35)
#loc39 = loc("/usr/local/lib/python3.12/dist-packages/vllm/models/minimax_m3/common/ops/sparse_attn.py":434:23)
#loc40 = loc("/usr/local/lib/python3.12/dist-packages/vllm/models/minimax_m3/common/ops/sparse_attn.py":434:4)
#loc52 = loc("o"(#loc1))
#loc53 = loc("off_c"(#loc6))
#loc54 = loc("off_d"(#loc7))
#loc55 = loc("o_ptrs"(#loc8))
#loc56 = loc("o_ptrs"(#loc9))
#loc57 = loc("o_ptrs"(#loc10))
#loc58 = loc("o_ptrs"(#loc11))
#loc59 = loc("o_ptrs"(#loc12))
#loc60 = loc("lse_ptrs"(#loc13))
#loc61 = loc("lse_ptrs"(#loc14))
#loc62 = loc("lse_ptrs"(#loc15))
#loc63 = loc("lse_ptrs"(#loc16))
#loc64 = loc("lse_ptrs"(#loc17))
#loc65 = loc("lse"(#loc18))
#loc67 = loc("weights"(#loc23))
#loc68 = loc("weights"(#loc24))
#loc70 = loc("weights"(#loc28))
#loc71 = loc("o_merged"(#loc29))
#loc72 = loc("o_merged"(#loc30))
#loc74 = loc("out_ptrs"(#loc32))
#loc75 = loc("out_ptrs"(#loc33))
#loc76 = loc("out_ptrs"(#loc34))
#loc77 = loc("out_ptrs"(#loc35))
#loc78 = loc("out_ptrs"(#loc36))
#loc79 = loc(callsite(#loc19 at #loc66))
#loc81 = loc(callsite(#loc25 at #loc69))
#loc83 = loc(callsite(#loc25 at #loc73))
#loc85 = loc(callsite(#loc22 at #loc79))
#loc86 = loc(callsite(#loc27 at #loc81))
#loc87 = loc(callsite(#loc27 at #loc83))
