#loc = loc("/usr/local/lib/python3.12/dist-packages/vllm/models/minimax_m3/common/ops/sparse_attn.py":388:0)
#loc38 = loc("/usr/local/lib/python3.12/dist-packages/triton/language/standard.py":177:0)
#loc40 = loc(unknown)
#loc43 = loc("/usr/local/lib/python3.12/dist-packages/triton/language/standard.py":169:0)
#loc47 = loc("/usr/local/lib/python3.12/dist-packages/triton/language/standard.py":287:0)
#loc51 = loc("/usr/local/lib/python3.12/dist-packages/triton/language/standard.py":262:0)
#loc55 = loc("o_ptr"(#loc))
#loc56 = loc("lse_ptr"(#loc))
#loc57 = loc("out_ptr"(#loc))
#loc58 = loc("head_dim"(#loc))
#loc59 = loc("stride_o_c"(#loc))
#loc60 = loc("stride_o_b"(#loc))
#loc61 = loc("stride_o_h"(#loc))
#loc62 = loc("stride_l_c"(#loc))
#loc63 = loc("stride_l_b"(#loc))
#loc64 = loc("stride_out_n"(#loc))
#loc65 = loc("stride_out_h"(#loc))
#loc95 = loc("input"(#loc38))
#loc96 = loc("a"(#loc43))
#loc97 = loc("b"(#loc43))
#loc98 = loc("input"(#loc47))
#loc99 = loc("a"(#loc51))
#loc100 = loc("b"(#loc51))
module {
  tt.func public @_merge_topk_attn_out_kernel(%o_ptr: !tt.ptr<bf16> {tt.divisibility = 16 : i32} loc("o_ptr"(#loc)), %lse_ptr: !tt.ptr<f32> {tt.divisibility = 16 : i32} loc("lse_ptr"(#loc)), %out_ptr: !tt.ptr<bf16> {tt.divisibility = 16 : i32} loc("out_ptr"(#loc)), %head_dim: i32 {tt.divisibility = 16 : i32} loc("head_dim"(#loc)), %stride_o_c: i32 {tt.divisibility = 16 : i32} loc("stride_o_c"(#loc)), %stride_o_b: i32 {tt.divisibility = 16 : i32} loc("stride_o_b"(#loc)), %stride_o_h: i32 {tt.divisibility = 16 : i32} loc("stride_o_h"(#loc)), %stride_l_c: i32 {tt.divisibility = 16 : i32} loc("stride_l_c"(#loc)), %stride_l_b: i32 {tt.divisibility = 16 : i32} loc("stride_l_b"(#loc)), %stride_out_n: i32 {tt.divisibility = 16 : i32} loc("stride_out_n"(#loc)), %stride_out_h: i32 {tt.divisibility = 16 : i32} loc("stride_out_h"(#loc))) attributes {noinline = false} {
    %0 = tt.get_program_id x : i32 loc(#loc1)
    %1 = tt.get_program_id y : i32 loc(#loc2)
    %2 = tt.elementwise_inline_asm "griddepcontrol.wait; // dummy $0" {constraints = "=r", packed_element = 1 : i32, pure = false} -> i32 loc(#loc3)
    %3 = tt.elementwise_inline_asm "griddepcontrol.launch_dependents; // dummy $0" {constraints = "=r", packed_element = 1 : i32, pure = false} -> i32 loc(#loc4)
    %off_c = tt.make_range {end = 16 : i32, start = 0 : i32} : tensor<16xi32> loc(#loc66)
    %off_d = tt.make_range {end = 128 : i32, start = 0 : i32} : tensor<128xi32> loc(#loc67)
    %o_ptrs = arith.extsi %0 : i32 to i64 loc(#loc68)
    %o_ptrs_0 = arith.extsi %stride_o_b : i32 to i64 loc(#loc68)
    %o_ptrs_1 = arith.muli %o_ptrs, %o_ptrs_0 : i64 loc(#loc68)
    %o_ptrs_2 = arith.constant 2147483647 : i64 loc(#loc68)
    %o_ptrs_3 = arith.constant -2147483648 : i64 loc(#loc68)
    %o_ptrs_4 = arith.cmpi sle, %o_ptrs_1, %o_ptrs_2 : i64 loc(#loc68)
    %o_ptrs_5 = arith.cmpi sge, %o_ptrs_1, %o_ptrs_3 : i64 loc(#loc68)
    %o_ptrs_6 = arith.andi %o_ptrs_4, %o_ptrs_5 : i1 loc(#loc68)
    %o_ptrs_7 = arith.muli %0, %stride_o_b : i32 loc(#loc68)
    %o_ptrs_8 = tt.addptr %o_ptr, %o_ptrs_7 : !tt.ptr<bf16>, i32 loc(#loc69)
    %o_ptrs_9 = arith.extsi %1 : i32 to i64 loc(#loc70)
    %o_ptrs_10 = arith.extsi %stride_o_h : i32 to i64 loc(#loc70)
    %o_ptrs_11 = arith.muli %o_ptrs_9, %o_ptrs_10 : i64 loc(#loc70)
    %o_ptrs_12 = arith.constant 2147483647 : i64 loc(#loc70)
    %o_ptrs_13 = arith.constant -2147483648 : i64 loc(#loc70)
    %o_ptrs_14 = arith.cmpi sle, %o_ptrs_11, %o_ptrs_12 : i64 loc(#loc70)
    %o_ptrs_15 = arith.cmpi sge, %o_ptrs_11, %o_ptrs_13 : i64 loc(#loc70)
    %o_ptrs_16 = arith.andi %o_ptrs_14, %o_ptrs_15 : i1 loc(#loc70)
    %o_ptrs_17 = arith.muli %1, %stride_o_h : i32 loc(#loc70)
    %o_ptrs_18 = tt.addptr %o_ptrs_8, %o_ptrs_17 : !tt.ptr<bf16>, i32 loc(#loc71)
    %o_ptrs_19 = arith.constant 16 : i64 loc(#loc72)
    %o_ptrs_20 = arith.extsi %head_dim : i32 to i64 loc(#loc72)
    %o_ptrs_21 = arith.extsi %stride_o_c : i32 to i64 loc(#loc72)
    %o_ptrs_22 = arith.constant 1 : i64 loc(#loc72)
    %o_ptrs_23 = arith.constant 0 : i32 loc(#loc72)
    %o_ptrs_24 = arith.constant 0 : i32 loc(#loc72)
    %o_ptrs_25 = tt.make_tensor_ptr %o_ptrs_18, [%o_ptrs_19, %o_ptrs_20], [%o_ptrs_21, %o_ptrs_22], [%o_ptrs_23, %o_ptrs_24] {order = array<i32: 1, 0>} : <tensor<16x128xbf16>> loc(#loc72)
    %lse_ptrs = arith.extsi %0 : i32 to i64 loc(#loc73)
    %lse_ptrs_26 = arith.extsi %stride_l_b : i32 to i64 loc(#loc73)
    %lse_ptrs_27 = arith.muli %lse_ptrs, %lse_ptrs_26 : i64 loc(#loc73)
    %lse_ptrs_28 = arith.constant 2147483647 : i64 loc(#loc73)
    %lse_ptrs_29 = arith.constant -2147483648 : i64 loc(#loc73)
    %lse_ptrs_30 = arith.cmpi sle, %lse_ptrs_27, %lse_ptrs_28 : i64 loc(#loc73)
    %lse_ptrs_31 = arith.cmpi sge, %lse_ptrs_27, %lse_ptrs_29 : i64 loc(#loc73)
    %lse_ptrs_32 = arith.andi %lse_ptrs_30, %lse_ptrs_31 : i1 loc(#loc73)
    %lse_ptrs_33 = arith.muli %0, %stride_l_b : i32 loc(#loc73)
    %lse_ptrs_34 = tt.addptr %lse_ptr, %lse_ptrs_33 : !tt.ptr<f32>, i32 loc(#loc74)
    %lse_ptrs_35 = arith.constant 1 : i32 loc(#loc75)
    %lse_ptrs_36 = arith.constant 1 : i32 loc(#loc75)
    %lse_ptrs_37 = arith.extsi %1 : i32 to i64 loc(#loc75)
    %lse_ptrs_38 = arith.extsi %lse_ptrs_36 : i32 to i64 loc(#loc75)
    %lse_ptrs_39 = arith.muli %lse_ptrs_37, %lse_ptrs_38 : i64 loc(#loc75)
    %lse_ptrs_40 = arith.constant 2147483647 : i64 loc(#loc75)
    %lse_ptrs_41 = arith.constant -2147483648 : i64 loc(#loc75)
    %lse_ptrs_42 = arith.cmpi sle, %lse_ptrs_39, %lse_ptrs_40 : i64 loc(#loc75)
    %lse_ptrs_43 = arith.cmpi sge, %lse_ptrs_39, %lse_ptrs_41 : i64 loc(#loc75)
    %lse_ptrs_44 = arith.andi %lse_ptrs_42, %lse_ptrs_43 : i1 loc(#loc75)
    %lse_ptrs_45 = arith.muli %1, %lse_ptrs_36 : i32 loc(#loc75)
    %lse_ptrs_46 = tt.addptr %lse_ptrs_34, %lse_ptrs_45 : !tt.ptr<f32>, i32 loc(#loc76)
    %lse_ptrs_47 = tt.splat %stride_l_c : i32 -> tensor<16xi32> loc(#loc77)
    %lse_ptrs_48 = arith.extsi %off_c : tensor<16xi32> to tensor<16xi64> loc(#loc77)
    %lse_ptrs_49 = arith.extsi %lse_ptrs_47 : tensor<16xi32> to tensor<16xi64> loc(#loc77)
    %lse_ptrs_50 = arith.muli %lse_ptrs_48, %lse_ptrs_49 : tensor<16xi64> loc(#loc77)
    %lse_ptrs_51 = arith.constant 2147483647 : i64 loc(#loc77)
    %lse_ptrs_52 = arith.constant -2147483648 : i64 loc(#loc77)
    %lse_ptrs_53 = arith.constant dense<2147483647> : tensor<16xi64> loc(#loc77)
    %lse_ptrs_54 = arith.cmpi sle, %lse_ptrs_50, %lse_ptrs_53 : tensor<16xi64> loc(#loc77)
    %lse_ptrs_55 = arith.constant dense<-2147483648> : tensor<16xi64> loc(#loc77)
    %lse_ptrs_56 = arith.cmpi sge, %lse_ptrs_50, %lse_ptrs_55 : tensor<16xi64> loc(#loc77)
    %lse_ptrs_57 = arith.andi %lse_ptrs_54, %lse_ptrs_56 : tensor<16xi1> loc(#loc77)
    %lse_ptrs_58 = arith.muli %off_c, %lse_ptrs_47 : tensor<16xi32> loc(#loc77)
    %lse_ptrs_59 = tt.splat %lse_ptrs_46 : !tt.ptr<f32> -> tensor<16x!tt.ptr<f32>> loc(#loc78)
    %lse_ptrs_60 = tt.addptr %lse_ptrs_59, %lse_ptrs_58 : tensor<16x!tt.ptr<f32>>, tensor<16xi32> loc(#loc78)
    %o = tt.load %o_ptrs_25 {boundaryCheck = array<i32: 0, 1>, padding = 1 : i32} : !tt.ptr<tensor<16x128xbf16>> loc(#loc79)
    %lse = tt.load %lse_ptrs_60 : tensor<16x!tt.ptr<f32>> loc(#loc80)
    %lse_max = tt.call @"triton.language.standard.max__fp32S16S__(1,)cconstexpr_0__(2,)cconstexpr_False__(3,)cconstexpr_True__(4,)cconstexpr_False_"(%lse) : (tensor<16xf32>) -> f32 loc(#loc81)
    %weights = tt.splat %lse_max : f32 -> tensor<16xf32> loc(#loc82)
    %weights_61 = arith.subf %lse, %weights : tensor<16xf32> loc(#loc82)
    %weights_62 = math.exp2 %weights_61 : tensor<16xf32> loc(#loc83)
    %weights_63 = tt.call @"triton.language.standard.sum__fp32S16S__(1,)cconstexpr_0__(2,)cconstexpr_False__(3,)cNone"(%weights_62) : (tensor<16xf32>) -> f32 loc(#loc84)
    %weights_64 = tt.splat %weights_63 : f32 -> tensor<16xf32> loc(#loc85)
    %weights_65 = arith.divf %weights_62, %weights_64 : tensor<16xf32> loc(#loc85)
    %o_merged = tt.expand_dims %weights_65 {axis = 1 : i32} : tensor<16xf32> -> tensor<16x1xf32> loc(#loc86)
    %o_merged_66 = arith.extf %o : tensor<16x128xbf16> to tensor<16x128xf32> loc(#loc87)
    %o_merged_67 = tt.broadcast %o_merged : tensor<16x1xf32> -> tensor<16x128xf32> loc(#loc87)
    %o_merged_68 = arith.mulf %o_merged_66, %o_merged_67 : tensor<16x128xf32> loc(#loc87)
    %o_merged_69 = tt.call @"triton.language.standard.sum__fp32S16_128S__(1,)cconstexpr_0__(2,)cconstexpr_False__(3,)cNone"(%o_merged_68) : (tensor<16x128xf32>) -> tensor<128xf32> loc(#loc88)
    %out_ptrs = arith.extsi %0 : i32 to i64 loc(#loc89)
    %out_ptrs_70 = arith.extsi %stride_out_n : i32 to i64 loc(#loc89)
    %out_ptrs_71 = arith.muli %out_ptrs, %out_ptrs_70 : i64 loc(#loc89)
    %out_ptrs_72 = arith.constant 2147483647 : i64 loc(#loc89)
    %out_ptrs_73 = arith.constant -2147483648 : i64 loc(#loc89)
    %out_ptrs_74 = arith.cmpi sle, %out_ptrs_71, %out_ptrs_72 : i64 loc(#loc89)
    %out_ptrs_75 = arith.cmpi sge, %out_ptrs_71, %out_ptrs_73 : i64 loc(#loc89)
    %out_ptrs_76 = arith.andi %out_ptrs_74, %out_ptrs_75 : i1 loc(#loc89)
    %out_ptrs_77 = arith.muli %0, %stride_out_n : i32 loc(#loc89)
    %out_ptrs_78 = tt.addptr %out_ptr, %out_ptrs_77 : !tt.ptr<bf16>, i32 loc(#loc90)
    %out_ptrs_79 = arith.extsi %1 : i32 to i64 loc(#loc91)
    %out_ptrs_80 = arith.extsi %stride_out_h : i32 to i64 loc(#loc91)
    %out_ptrs_81 = arith.muli %out_ptrs_79, %out_ptrs_80 : i64 loc(#loc91)
    %out_ptrs_82 = arith.constant 2147483647 : i64 loc(#loc91)
    %out_ptrs_83 = arith.constant -2147483648 : i64 loc(#loc91)
    %out_ptrs_84 = arith.cmpi sle, %out_ptrs_81, %out_ptrs_82 : i64 loc(#loc91)
    %out_ptrs_85 = arith.cmpi sge, %out_ptrs_81, %out_ptrs_83 : i64 loc(#loc91)
    %out_ptrs_86 = arith.andi %out_ptrs_84, %out_ptrs_85 : i1 loc(#loc91)
    %out_ptrs_87 = arith.muli %1, %stride_out_h : i32 loc(#loc91)
    %out_ptrs_88 = tt.addptr %out_ptrs_78, %out_ptrs_87 : !tt.ptr<bf16>, i32 loc(#loc92)
    %out_ptrs_89 = arith.constant 1 : i32 loc(#loc93)
    %out_ptrs_90 = arith.constant 1 : i32 loc(#loc93)
    %out_ptrs_91 = arith.constant dense<1> : tensor<128xi32> loc(#loc93)
    %out_ptrs_92 = arith.extsi %off_d : tensor<128xi32> to tensor<128xi64> loc(#loc93)
    %out_ptrs_93 = arith.extsi %out_ptrs_91 : tensor<128xi32> to tensor<128xi64> loc(#loc93)
    %out_ptrs_94 = arith.muli %out_ptrs_92, %out_ptrs_93 : tensor<128xi64> loc(#loc93)
    %out_ptrs_95 = arith.constant 2147483647 : i64 loc(#loc93)
    %out_ptrs_96 = arith.constant -2147483648 : i64 loc(#loc93)
    %out_ptrs_97 = arith.constant dense<2147483647> : tensor<128xi64> loc(#loc93)
    %out_ptrs_98 = arith.cmpi sle, %out_ptrs_94, %out_ptrs_97 : tensor<128xi64> loc(#loc93)
    %out_ptrs_99 = arith.constant dense<-2147483648> : tensor<128xi64> loc(#loc93)
    %out_ptrs_100 = arith.cmpi sge, %out_ptrs_94, %out_ptrs_99 : tensor<128xi64> loc(#loc93)
    %out_ptrs_101 = arith.andi %out_ptrs_98, %out_ptrs_100 : tensor<128xi1> loc(#loc93)
    %out_ptrs_102 = arith.muli %off_d, %out_ptrs_91 : tensor<128xi32> loc(#loc93)
    %out_ptrs_103 = tt.splat %out_ptrs_88 : !tt.ptr<bf16> -> tensor<128x!tt.ptr<bf16>> loc(#loc94)
    %out_ptrs_104 = tt.addptr %out_ptrs_103, %out_ptrs_102 : tensor<128x!tt.ptr<bf16>>, tensor<128xi32> loc(#loc94)
    %4 = tt.splat %head_dim : i32 -> tensor<128xi32> loc(#loc34)
    %5 = arith.cmpi slt, %off_d, %4 : tensor<128xi32> loc(#loc34)
    %6 = arith.truncf %o_merged_69 : tensor<128xf32> to tensor<128xbf16> loc(#loc35)
    tt.store %out_ptrs_104, %6, %5 : tensor<128x!tt.ptr<bf16>> loc(#loc36)
    tt.return loc(#loc37)
  } loc(#loc)
  tt.func private @"triton.language.standard.max__fp32S16S__(1,)cconstexpr_0__(2,)cconstexpr_False__(3,)cconstexpr_True__(4,)cconstexpr_False_"(%input: tensor<16xf32> loc("input"(#loc38))) -> f32 attributes {noinline = false} {
    %0 = "tt.reduce"(%input) <{axis = 0 : i32}> ({
    ^bb0(%arg1: f32 loc(unknown), %arg2: f32 loc(unknown)):
      %2 = tt.call @triton.language.standard._elementwise_max__fp32_fp32__(%arg1, %arg2) : (f32, f32) -> f32 loc(#loc39)
      tt.reduce.return %2 : f32 loc(#loc39)
    }) : (tensor<16xf32>) -> f32 loc(#loc39)
    tt.return %0 : f32 loc(#loc41)
  ^bb1:  // no predecessors
    %1 = ub.poison : f32 loc(#loc42)
    tt.return %1 : f32 loc(#loc42)
  } loc(#loc38)
  tt.func private @triton.language.standard._elementwise_max__fp32_fp32__(%a: f32 loc("a"(#loc43)), %b: f32 loc("b"(#loc43))) -> f32 attributes {noinline = false} {
    %0 = arith.maxnumf %a, %b : f32 loc(#loc44)
    tt.return %0 : f32 loc(#loc45)
  ^bb1:  // no predecessors
    %1 = ub.poison : f32 loc(#loc46)
    tt.return %1 : f32 loc(#loc46)
  } loc(#loc43)
  tt.func private @"triton.language.standard.sum__fp32S16S__(1,)cconstexpr_0__(2,)cconstexpr_False__(3,)cNone"(%input: tensor<16xf32> loc("input"(#loc47))) -> f32 attributes {noinline = false} {
    %0 = "tt.reduce"(%input) <{axis = 0 : i32}> ({
    ^bb0(%arg1: f32 loc(unknown), %arg2: f32 loc(unknown)):
      %2 = tt.call @triton.language.standard._sum_combine__fp32_fp32__(%arg1, %arg2) : (f32, f32) -> f32 loc(#loc48)
      tt.reduce.return %2 : f32 loc(#loc48)
    }) : (tensor<16xf32>) -> f32 loc(#loc48)
    tt.return %0 : f32 loc(#loc49)
  ^bb1:  // no predecessors
    %1 = ub.poison : f32 loc(#loc50)
    tt.return %1 : f32 loc(#loc50)
  } loc(#loc47)
  tt.func private @triton.language.standard._sum_combine__fp32_fp32__(%a: f32 loc("a"(#loc51)), %b: f32 loc("b"(#loc51))) -> f32 attributes {noinline = false} {
    %0 = arith.addf %a, %b : f32 loc(#loc52)
    tt.return %0 : f32 loc(#loc53)
  ^bb1:  // no predecessors
    %1 = ub.poison : f32 loc(#loc54)
    tt.return %1 : f32 loc(#loc54)
  } loc(#loc51)
  tt.func private @"triton.language.standard.sum__fp32S16_128S__(1,)cconstexpr_0__(2,)cconstexpr_False__(3,)cNone"(%input: tensor<16x128xf32> loc("input"(#loc47))) -> tensor<128xf32> attributes {noinline = false} {
    %0 = "tt.reduce"(%input) <{axis = 0 : i32}> ({
    ^bb0(%arg1: f32 loc(unknown), %arg2: f32 loc(unknown)):
      %2 = tt.call @triton.language.standard._sum_combine__fp32_fp32__(%arg1, %arg2) : (f32, f32) -> f32 loc(#loc48)
      tt.reduce.return %2 : f32 loc(#loc48)
    }) : (tensor<16x128xf32>) -> tensor<128xf32> loc(#loc48)
    tt.return %0 : tensor<128xf32> loc(#loc49)
  ^bb1:  // no predecessors
    %1 = ub.poison : tensor<128xf32> loc(#loc50)
    tt.return %1 : tensor<128xf32> loc(#loc50)
  } loc(#loc47)
} loc(#loc)
#loc1 = loc("/usr/local/lib/python3.12/dist-packages/vllm/models/minimax_m3/common/ops/sparse_attn.py":407:33)
#loc2 = loc("/usr/local/lib/python3.12/dist-packages/vllm/models/minimax_m3/common/ops/sparse_attn.py":407:51)
#loc3 = loc("/usr/local/lib/python3.12/dist-packages/vllm/models/minimax_m3/common/ops/sparse_attn.py":411:8)
#loc4 = loc("/usr/local/lib/python3.12/dist-packages/vllm/models/minimax_m3/common/ops/sparse_attn.py":412:8)
#loc5 = loc("/usr/local/lib/python3.12/dist-packages/vllm/models/minimax_m3/common/ops/sparse_attn.py":414:25)
#loc6 = loc("/usr/local/lib/python3.12/dist-packages/vllm/models/minimax_m3/common/ops/sparse_attn.py":415:25)
#loc7 = loc("/usr/local/lib/python3.12/dist-packages/vllm/models/minimax_m3/common/ops/sparse_attn.py":417:29)
#loc8 = loc("/usr/local/lib/python3.12/dist-packages/vllm/models/minimax_m3/common/ops/sparse_attn.py":417:21)
#loc9 = loc("/usr/local/lib/python3.12/dist-packages/vllm/models/minimax_m3/common/ops/sparse_attn.py":417:50)
#loc10 = loc("/usr/local/lib/python3.12/dist-packages/vllm/models/minimax_m3/common/ops/sparse_attn.py":417:42)
#loc11 = loc("/usr/local/lib/python3.12/dist-packages/vllm/models/minimax_m3/common/ops/sparse_attn.py":422:8)
#loc12 = loc("/usr/local/lib/python3.12/dist-packages/vllm/models/minimax_m3/common/ops/sparse_attn.py":424:33)
#loc13 = loc("/usr/local/lib/python3.12/dist-packages/vllm/models/minimax_m3/common/ops/sparse_attn.py":424:25)
#loc14 = loc("/usr/local/lib/python3.12/dist-packages/vllm/models/minimax_m3/common/ops/sparse_attn.py":424:54)
#loc15 = loc("/usr/local/lib/python3.12/dist-packages/vllm/models/minimax_m3/common/ops/sparse_attn.py":424:46)
#loc16 = loc("/usr/local/lib/python3.12/dist-packages/vllm/models/minimax_m3/common/ops/sparse_attn.py":424:75)
#loc17 = loc("/usr/local/lib/python3.12/dist-packages/vllm/models/minimax_m3/common/ops/sparse_attn.py":424:67)
#loc18 = loc("/usr/local/lib/python3.12/dist-packages/vllm/models/minimax_m3/common/ops/sparse_attn.py":425:16)
#loc19 = loc("/usr/local/lib/python3.12/dist-packages/vllm/models/minimax_m3/common/ops/sparse_attn.py":426:18)
#loc20 = loc("/usr/local/lib/python3.12/dist-packages/vllm/models/minimax_m3/common/ops/sparse_attn.py":427:21)
#loc21 = loc("/usr/local/lib/python3.12/dist-packages/vllm/models/minimax_m3/common/ops/sparse_attn.py":428:28)
#loc22 = loc("/usr/local/lib/python3.12/dist-packages/vllm/models/minimax_m3/common/ops/sparse_attn.py":428:22)
#loc23 = loc("/usr/local/lib/python3.12/dist-packages/vllm/models/minimax_m3/common/ops/sparse_attn.py":429:31)
#loc24 = loc("/usr/local/lib/python3.12/dist-packages/vllm/models/minimax_m3/common/ops/sparse_attn.py":429:24)
#loc25 = loc("/usr/local/lib/python3.12/dist-packages/vllm/models/minimax_m3/common/ops/sparse_attn.py":430:34)
#loc26 = loc("/usr/local/lib/python3.12/dist-packages/vllm/models/minimax_m3/common/ops/sparse_attn.py":430:26)
#loc27 = loc("/usr/local/lib/python3.12/dist-packages/vllm/models/minimax_m3/common/ops/sparse_attn.py":430:22)
#loc28 = loc("/usr/local/lib/python3.12/dist-packages/vllm/models/minimax_m3/common/ops/sparse_attn.py":432:26)
#loc29 = loc("/usr/local/lib/python3.12/dist-packages/vllm/models/minimax_m3/common/ops/sparse_attn.py":432:18)
#loc30 = loc("/usr/local/lib/python3.12/dist-packages/vllm/models/minimax_m3/common/ops/sparse_attn.py":432:49)
#loc31 = loc("/usr/local/lib/python3.12/dist-packages/vllm/models/minimax_m3/common/ops/sparse_attn.py":432:41)
#loc32 = loc("/usr/local/lib/python3.12/dist-packages/vllm/models/minimax_m3/common/ops/sparse_attn.py":432:72)
#loc33 = loc("/usr/local/lib/python3.12/dist-packages/vllm/models/minimax_m3/common/ops/sparse_attn.py":432:64)
#loc34 = loc("/usr/local/lib/python3.12/dist-packages/vllm/models/minimax_m3/common/ops/sparse_attn.py":434:75)
#loc35 = loc("/usr/local/lib/python3.12/dist-packages/vllm/models/minimax_m3/common/ops/sparse_attn.py":434:35)
#loc36 = loc("/usr/local/lib/python3.12/dist-packages/vllm/models/minimax_m3/common/ops/sparse_attn.py":434:23)
#loc37 = loc("/usr/local/lib/python3.12/dist-packages/vllm/models/minimax_m3/common/ops/sparse_attn.py":434:4)
#loc39 = loc("/usr/local/lib/python3.12/dist-packages/triton/language/standard.py":191:40)
#loc41 = loc("/usr/local/lib/python3.12/dist-packages/triton/language/standard.py":191:15)
#loc42 = loc("/usr/local/lib/python3.12/dist-packages/triton/language/standard.py":179:4)
#loc44 = loc("/usr/local/lib/python3.12/dist-packages/triton/language/standard.py":170:27)
#loc45 = loc("/usr/local/lib/python3.12/dist-packages/triton/language/standard.py":170:11)
#loc46 = loc("/usr/local/lib/python3.12/dist-packages/triton/language/standard.py":170:4)
#loc48 = loc("/usr/local/lib/python3.12/dist-packages/triton/language/standard.py":293:36)
#loc49 = loc("/usr/local/lib/python3.12/dist-packages/triton/language/standard.py":293:11)
#loc50 = loc("/usr/local/lib/python3.12/dist-packages/triton/language/standard.py":293:4)
#loc52 = loc("/usr/local/lib/python3.12/dist-packages/triton/language/standard.py":263:15)
#loc53 = loc("/usr/local/lib/python3.12/dist-packages/triton/language/standard.py":263:11)
#loc54 = loc("/usr/local/lib/python3.12/dist-packages/triton/language/standard.py":263:4)
#loc66 = loc("off_c"(#loc5))
#loc67 = loc("off_d"(#loc6))
#loc68 = loc("o_ptrs"(#loc7))
#loc69 = loc("o_ptrs"(#loc8))
#loc70 = loc("o_ptrs"(#loc9))
#loc71 = loc("o_ptrs"(#loc10))
#loc72 = loc("o_ptrs"(#loc11))
#loc73 = loc("lse_ptrs"(#loc12))
#loc74 = loc("lse_ptrs"(#loc13))
#loc75 = loc("lse_ptrs"(#loc14))
#loc76 = loc("lse_ptrs"(#loc15))
#loc77 = loc("lse_ptrs"(#loc16))
#loc78 = loc("lse_ptrs"(#loc17))
#loc79 = loc("o"(#loc18))
#loc80 = loc("lse"(#loc19))
#loc81 = loc("lse_max"(#loc20))
#loc82 = loc("weights"(#loc21))
#loc83 = loc("weights"(#loc22))
#loc84 = loc("weights"(#loc23))
#loc85 = loc("weights"(#loc24))
#loc86 = loc("o_merged"(#loc25))
#loc87 = loc("o_merged"(#loc26))
#loc88 = loc("o_merged"(#loc27))
#loc89 = loc("out_ptrs"(#loc28))
#loc90 = loc("out_ptrs"(#loc29))
#loc91 = loc("out_ptrs"(#loc30))
#loc92 = loc("out_ptrs"(#loc31))
#loc93 = loc("out_ptrs"(#loc32))
#loc94 = loc("out_ptrs"(#loc33))
