#loc = loc("/usr/local/lib/python3.12/dist-packages/vllm/models/minimax_m3/common/ops/sparse_attn.py":227:0)
#loc3 = loc(unknown)
#loc34 = loc("/usr/local/lib/python3.12/dist-packages/vllm/models/minimax_m3/common/ops/sparse_attn.py":293:23)
#loc73 = loc("/usr/local/lib/python3.12/dist-packages/vllm/models/minimax_m3/common/ops/sparse_attn.py":337:38)
#loc79 = loc("/usr/local/lib/python3.12/dist-packages/vllm/models/minimax_m3/common/ops/sparse_attn.py":339:22)
#loc119 = loc("q_ptr"(#loc))
#loc120 = loc("kv_cache_ptr"(#loc))
#loc121 = loc("t_ptr"(#loc))
#loc122 = loc("o_ptr"(#loc))
#loc123 = loc("lse_ptr"(#loc))
#loc124 = loc("block_table_ptr"(#loc))
#loc125 = loc("seq_lens"(#loc))
#loc126 = loc("gqa_group_size"(#loc))
#loc127 = loc("head_dim"(#loc))
#loc128 = loc("max_topk"(#loc))
#loc129 = loc("sm_scale"(#loc))
#loc130 = loc("decode_query_len"(#loc))
#loc131 = loc("stride_qn"(#loc))
#loc132 = loc("stride_qh"(#loc))
#loc133 = loc("stride_kv_blk"(#loc))
#loc134 = loc("stride_kv_kv"(#loc))
#loc135 = loc("stride_kv_pos"(#loc))
#loc136 = loc("stride_kv_h"(#loc))
#loc137 = loc("stride_th"(#loc))
#loc138 = loc("stride_tn"(#loc))
#loc139 = loc("stride_o_c"(#loc))
#loc140 = loc("stride_o_b"(#loc))
#loc141 = loc("stride_o_h"(#loc))
#loc142 = loc("stride_l_c"(#loc))
#loc143 = loc("stride_l_b"(#loc))
#loc144 = loc("stride_bt_b"(#loc))
#loc170 = loc("real_topk"(#loc34))
#loc207 = loc("m_ij"(#loc73))
#loc212 = loc("l_ij"(#loc79))
#loc249 = loc(callsite(#loc3 at #loc170))
#loc252 = loc(callsite(#loc3 at #loc207))
#loc254 = loc(callsite(#loc3 at #loc212))
module {
  tt.func public @_gqa_sparse_decode_kernel(%q_ptr: !tt.ptr<bf16> {tt.divisibility = 16 : i32} loc("q_ptr"(#loc)), %kv_cache_ptr: !tt.ptr<bf16> {tt.divisibility = 16 : i32} loc("kv_cache_ptr"(#loc)), %t_ptr: !tt.ptr<i32> {tt.divisibility = 16 : i32} loc("t_ptr"(#loc)), %o_ptr: !tt.ptr<bf16> {tt.divisibility = 16 : i32} loc("o_ptr"(#loc)), %lse_ptr: !tt.ptr<f32> {tt.divisibility = 16 : i32} loc("lse_ptr"(#loc)), %block_table_ptr: !tt.ptr<i32> {tt.divisibility = 16 : i32} loc("block_table_ptr"(#loc)), %seq_lens: !tt.ptr<i32> {tt.divisibility = 16 : i32} loc("seq_lens"(#loc)), %gqa_group_size: i32 {tt.divisibility = 16 : i32} loc("gqa_group_size"(#loc)), %head_dim: i32 {tt.divisibility = 16 : i32} loc("head_dim"(#loc)), %max_topk: i32 {tt.divisibility = 16 : i32} loc("max_topk"(#loc)), %sm_scale: f32 loc("sm_scale"(#loc)), %decode_query_len: i32 loc("decode_query_len"(#loc)), %stride_qn: i32 {tt.divisibility = 16 : i32} loc("stride_qn"(#loc)), %stride_qh: i32 {tt.divisibility = 16 : i32} loc("stride_qh"(#loc)), %stride_kv_blk: i32 {tt.divisibility = 16 : i32} loc("stride_kv_blk"(#loc)), %stride_kv_kv: i32 {tt.divisibility = 16 : i32} loc("stride_kv_kv"(#loc)), %stride_kv_pos: i32 {tt.divisibility = 16 : i32} loc("stride_kv_pos"(#loc)), %stride_kv_h: i32 {tt.divisibility = 16 : i32} loc("stride_kv_h"(#loc)), %stride_th: i32 {tt.divisibility = 16 : i32} loc("stride_th"(#loc)), %stride_tn: i32 {tt.divisibility = 16 : i32} loc("stride_tn"(#loc)), %stride_o_c: i32 {tt.divisibility = 16 : i32} loc("stride_o_c"(#loc)), %stride_o_b: i32 {tt.divisibility = 16 : i32} loc("stride_o_b"(#loc)), %stride_o_h: i32 {tt.divisibility = 16 : i32} loc("stride_o_h"(#loc)), %stride_l_c: i32 {tt.divisibility = 16 : i32} loc("stride_l_c"(#loc)), %stride_l_b: i32 {tt.divisibility = 16 : i32} loc("stride_l_b"(#loc)), %stride_bt_b: i32 {tt.divisibility = 16 : i32} loc("stride_bt_b"(#loc))) attributes {noinline = false} {
    %cst = arith.constant dense<0> : tensor<16xi64> loc(#loc1)
    %q = arith.constant dense<0.000000e+00> : tensor<16x128xbf16> loc(#loc145)
    %cst_0 = arith.constant dense<0> : tensor<1x128xi64> loc(#loc3)
    %cst_1 = arith.constant dense<0> : tensor<16x1xi64> loc(#loc3)
    %scale = arith.constant dense<0.000000e+00> : tensor<16xf32> loc(#loc255)
    %cst_2 = arith.constant dense<0.000000e+00> : tensor<128x128xbf16> loc(#loc3)
    %chunk_size_topk = arith.constant 15 : i32 loc(#loc147)
    %cst_3 = arith.constant dense<0.000000e+00> : tensor<16x128xf32> loc(#loc3)
    %cst_4 = arith.constant dense<0xFF800000> : tensor<1x128xf32> loc(#loc3)
    %cst_5 = arith.constant dense<0.000000e+00> : tensor<1x128xf32> loc(#loc3)
    %c128_i32 = arith.constant 128 : i32 loc(#loc3)
    %cst_6 = arith.constant dense<0xFF800000> : tensor<16xf32> loc(#loc3)
    %real_topk = arith.constant dense<0> : tensor<16xi32> loc(#loc148)
    %topk_idx = arith.constant dense<-1> : tensor<16xi32> loc(#loc149)
    %c0_i32 = arith.constant 0 : i32 loc(#loc3)
    %c16_i32 = arith.constant 16 : i32 loc(#loc3)
    %c1_i32 = arith.constant 1 : i32 loc(#loc3)
    %cst_7 = arith.constant 1.44269502 : f32 loc(#loc3)
    %sm_scale_log2e = arith.mulf %sm_scale, %cst_7 : f32 loc(#loc150)
    %0 = tt.get_program_id x : i32 loc(#loc11)
    %1 = tt.get_program_id y : i32 loc(#loc12)
    %req_id = arith.divsi %c0_i32, %decode_query_len : i32 loc(#loc151)
    %q_offset = arith.muli %req_id, %decode_query_len : i32 loc(#loc152)
    %q_offset_8 = arith.subi %c0_i32, %q_offset : i32 loc(#loc153)
    %pid_h = arith.muli %1, %gqa_group_size : i32 loc(#loc154)
    %chunk_size_topk_9 = arith.addi %max_topk, %chunk_size_topk : i32 loc(#loc147)
    %chunk_size_topk_10 = arith.divsi %chunk_size_topk_9, %c16_i32 : i32 loc(#loc155)
    %chunk_start_topk = arith.muli %0, %chunk_size_topk_10 : i32 loc(#loc156)
    %chunk_end_compiletime = arith.addi %chunk_start_topk, %chunk_size_topk_10 : i32 loc(#loc157)
    %2 = tt.elementwise_inline_asm "griddepcontrol.wait; // dummy $0" {constraints = "=r", packed_element = 1 : i32, pure = false} -> i32 loc(#loc20)
    %seq_len = tt.addptr %seq_lens, %req_id : !tt.ptr<i32>, i32 loc(#loc158)
    %seq_len_11 = tt.load %seq_len : !tt.ptr<i32> loc(#loc159)
    %query_pos = arith.subi %seq_len_11, %decode_query_len : i32 loc(#loc160)
    %query_pos_12 = arith.addi %query_pos, %q_offset_8 : i32 loc(#loc161)
    %kv_len = arith.addi %query_pos_12, %c1_i32 : i32 loc(#loc162)
    %kv_len_13 = arith.maxsi %kv_len, %c0_i32 : i32 loc(#loc163)
    %off_t = tt.make_range {end = 16 : i32, start = 0 : i32} : tensor<16xi32> loc(#loc164)
    %idx_base = arith.muli %1, %stride_th : i32 loc(#loc165)
    %idx_base_14 = tt.addptr %t_ptr, %idx_base : !tt.ptr<i32>, i32 loc(#loc166)
    %topk_idx_15 = tt.splat %max_topk : i32 -> tensor<16xi32> loc(#loc167)
    %topk_idx_16 = arith.cmpi slt, %off_t, %topk_idx_15 : tensor<16xi32> loc(#loc167)
    %topk_idx_17 = tt.splat %idx_base_14 : !tt.ptr<i32> -> tensor<16x!tt.ptr<i32>> loc(#loc168)
    %topk_idx_18 = tt.addptr %topk_idx_17, %off_t : tensor<16x!tt.ptr<i32>>, tensor<16xi32> loc(#loc168)
    %topk_idx_19 = tt.load %topk_idx_18, %topk_idx_16, %topk_idx : tensor<16x!tt.ptr<i32>> loc(#loc149)
    %real_topk_20 = arith.cmpi sge, %topk_idx_19, %real_topk : tensor<16xi32> loc(#loc148)
    %real_topk_21 = arith.extui %real_topk_20 : tensor<16xi1> to tensor<16xi32> loc(#loc169)
    %real_topk_22 = "tt.reduce"(%real_topk_21) <{axis = 0 : i32}> ({
    ^bb0(%real_topk_65: i32 loc(callsite(#loc3 at #loc170)), %real_topk_66: i32 loc(callsite(#loc3 at #loc170))):
      %real_topk_67 = arith.addi %real_topk_65, %real_topk_66 : i32 loc(#loc256)
      tt.reduce.return %real_topk_67 : i32 loc(#loc248)
    }) : (tensor<16xi32>) -> i32 loc(#loc248)
    %chunk_end_topk = arith.minsi %chunk_end_compiletime, %real_topk_22 : i32 loc(#loc171)
    %off_n = tt.make_range {end = 128 : i32, start = 0 : i32} : tensor<128xi32> loc(#loc172)
    %d_mask = tt.splat %head_dim : i32 -> tensor<128xi32> loc(#loc173)
    %d_mask_23 = arith.cmpi slt, %off_n, %d_mask : tensor<128xi32> loc(#loc173)
    %bt_row = arith.muli %req_id, %stride_bt_b : i32 loc(#loc174)
    %bt_row_24 = tt.addptr %block_table_ptr, %bt_row : !tt.ptr<i32>, i32 loc(#loc175)
    %q_ptrs = arith.muli %pid_h, %stride_qh : i32 loc(#loc176)
    %q_ptrs_25 = tt.addptr %q_ptr, %q_ptrs : !tt.ptr<bf16>, i32 loc(#loc177)
    %q_ptrs_26 = arith.extsi %gqa_group_size : i32 to i64 loc(#loc178)
    %q_ptrs_27 = arith.extsi %head_dim : i32 to i64 loc(#loc178)
    %q_ptrs_28 = arith.extsi %stride_qh : i32 to i64 loc(#loc178)
    %q_29 = tt.splat %q_ptrs_25 : !tt.ptr<bf16> -> tensor<16x128x!tt.ptr<bf16>> loc(#loc145)
    %q_30 = arith.extsi %off_t : tensor<16xi32> to tensor<16xi64> loc(#loc145)
    %q_31 = tt.expand_dims %q_30 {axis = 1 : i32} : tensor<16xi64> -> tensor<16x1xi64> loc(#loc145)
    %q_32 = tt.splat %q_ptrs_28 : i64 -> tensor<16x1xi64> loc(#loc145)
    %q_33 = arith.muli %q_31, %q_32 : tensor<16x1xi64> loc(#loc145)
    %q_34 = tt.broadcast %q_33 : tensor<16x1xi64> -> tensor<16x128xi64> loc(#loc145)
    %q_35 = arith.extsi %off_n : tensor<128xi32> to tensor<128xi64> loc(#loc145)
    %q_36 = tt.expand_dims %q_35 {axis = 0 : i32} : tensor<128xi64> -> tensor<1x128xi64> loc(#loc145)
    %q_37 = tt.broadcast %q_36 : tensor<1x128xi64> -> tensor<16x128xi64> loc(#loc145)
    %q_38 = arith.addi %q_34, %q_37 : tensor<16x128xi64> loc(#loc145)
    %q_39 = tt.addptr %q_29, %q_38 : tensor<16x128x!tt.ptr<bf16>>, tensor<16x128xi64> loc(#loc145)
    %q_40 = arith.cmpi sge, %q_31, %cst_1 : tensor<16x1xi64> loc(#loc145)
    %q_41 = tt.splat %q_ptrs_26 : i64 -> tensor<16x1xi64> loc(#loc145)
    %q_42 = arith.cmpi slt, %q_31, %q_41 : tensor<16x1xi64> loc(#loc145)
    %q_43 = arith.andi %q_40, %q_42 : tensor<16x1xi1> loc(#loc145)
    %q_44 = tt.broadcast %q_43 : tensor<16x1xi1> -> tensor<16x128xi1> loc(#loc145)
    %q_45 = arith.cmpi sge, %q_36, %cst_0 : tensor<1x128xi64> loc(#loc145)
    %q_46 = tt.splat %q_ptrs_27 : i64 -> tensor<1x128xi64> loc(#loc145)
    %q_47 = arith.cmpi slt, %q_36, %q_46 : tensor<1x128xi64> loc(#loc145)
    %q_48 = arith.andi %q_45, %q_47 : tensor<1x128xi1> loc(#loc145)
    %q_49 = tt.broadcast %q_48 : tensor<1x128xi1> -> tensor<16x128xi1> loc(#loc145)
    %q_50 = arith.andi %q_44, %q_49 : tensor<16x128xi1> loc(#loc145)
    %q_51 = tt.load %q_39, %q_50, %q : tensor<16x128x!tt.ptr<bf16>> loc(#loc145)
    %cur_idx_ptr = tt.addptr %idx_base_14, %chunk_start_topk : !tt.ptr<i32>, i32 loc(#loc179)
    %cur_idx_ptr_52:4 = scf.for %_ = %chunk_start_topk to %chunk_end_topk step %c1_i32 iter_args(%m_i = %cst_6, %lse_i = %cst_6, %acc_o_65 = %cst_3, %cur_idx_ptr_66 = %cur_idx_ptr) -> (tensor<16xf32>, tensor<16xf32>, tensor<16x128xf32>, !tt.ptr<i32>)  : i32 {
      %blk = tt.load %cur_idx_ptr_66 : !tt.ptr<i32> loc(#loc181)
      %cur_idx_ptr_67 = tt.addptr %cur_idx_ptr_66, %c1_i32 : !tt.ptr<i32>, i32 loc(#loc182)
      %c = arith.muli %blk, %c128_i32 : i32 loc(#loc183)
      %page = tt.addptr %bt_row_24, %blk : !tt.ptr<i32>, i32 loc(#loc184)
      %page_68 = tt.load %page : !tt.ptr<i32> loc(#loc185)
      %page_69 = arith.extsi %page_68 : i32 to i64 loc(#loc186)
      %pos = tt.splat %c : i32 -> tensor<128xi32> loc(#loc187)
      %pos_70 = arith.addi %pos, %off_n : tensor<128xi32> loc(#loc187)
      %pos_mask = tt.splat %kv_len_13 : i32 -> tensor<128xi32> loc(#loc188)
      %pos_mask_71 = arith.cmpi slt, %pos_70, %pos_mask : tensor<128xi32> loc(#loc188)
      %k = tt.expand_dims %d_mask_23 {axis = 1 : i32} : tensor<128xi1> -> tensor<128x1xi1> loc(#loc189)
      %k_72 = tt.expand_dims %pos_mask_71 {axis = 0 : i32} : tensor<128xi1> -> tensor<1x128xi1> loc(#loc190)
      %k_73 = tt.broadcast %k : tensor<128x1xi1> -> tensor<128x128xi1> loc(#loc191)
      %k_74 = tt.broadcast %k_72 : tensor<1x128xi1> -> tensor<128x128xi1> loc(#loc191)
      %k_75 = arith.andi %k_73, %k_74 : tensor<128x128xi1> loc(#loc191)
      %k_76 = arith.extsi %stride_kv_blk : i32 to i64 loc(#loc192)
      %k_77 = arith.muli %page_69, %k_76 : i64 loc(#loc192)
      %k_78 = tt.addptr %kv_cache_ptr, %k_77 : !tt.ptr<bf16>, i64 loc(#loc193)
      %k_79 = tt.expand_dims %off_n {axis = 0 : i32} : tensor<128xi32> -> tensor<1x128xi32> loc(#loc194)
      %k_80 = tt.splat %stride_kv_pos : i32 -> tensor<1x128xi32> loc(#loc195)
      %k_81 = arith.muli %k_79, %k_80 : tensor<1x128xi32> loc(#loc195)
      %k_82 = tt.splat %k_78 : !tt.ptr<bf16> -> tensor<1x128x!tt.ptr<bf16>> loc(#loc196)
      %k_83 = tt.addptr %k_82, %k_81 : tensor<1x128x!tt.ptr<bf16>>, tensor<1x128xi32> loc(#loc196)
      %k_84 = arith.muli %1, %stride_kv_h : i32 loc(#loc197)
      %k_85 = tt.splat %k_84 : i32 -> tensor<1x128xi32> loc(#loc198)
      %k_86 = tt.addptr %k_83, %k_85 : tensor<1x128x!tt.ptr<bf16>>, tensor<1x128xi32> loc(#loc198)
      %k_87 = tt.expand_dims %off_n {axis = 1 : i32} : tensor<128xi32> -> tensor<128x1xi32> loc(#loc199)
      %k_88 = tt.broadcast %k_86 : tensor<1x128x!tt.ptr<bf16>> -> tensor<128x128x!tt.ptr<bf16>> loc(#loc200)
      %k_89 = tt.broadcast %k_87 : tensor<128x1xi32> -> tensor<128x128xi32> loc(#loc200)
      %k_90 = tt.addptr %k_88, %k_89 : tensor<128x128x!tt.ptr<bf16>>, tensor<128x128xi32> loc(#loc200)
      %k_91 = tt.load %k_90, %k_75, %cst_2 : tensor<128x128x!tt.ptr<bf16>> loc(#loc201)
      %qk = arith.select %k_72, %cst_5, %cst_4 : tensor<1x128xi1>, tensor<1x128xf32> loc(#loc202)
      %qk_92 = arith.addf %qk, %cst_5 : tensor<1x128xf32> loc(#loc203)
      %qk_93 = tt.broadcast %qk_92 : tensor<1x128xf32> -> tensor<16x128xf32> loc(#loc203)
      %qk_94 = tt.dot %q_51, %k_91, %cst_3, inputPrecision = tf32 : tensor<16x128xbf16> * tensor<128x128xbf16> -> tensor<16x128xf32> loc(#loc204)
      %qk_95 = tt.splat %sm_scale_log2e : f32 -> tensor<16x128xf32> loc(#loc205)
      %qk_96 = arith.mulf %qk_94, %qk_95 : tensor<16x128xf32> loc(#loc205)
      %qk_97 = arith.addf %qk_93, %qk_96 : tensor<16x128xf32> loc(#loc206)
      %m_ij = "tt.reduce"(%qk_97) <{axis = 1 : i32}> ({
      ^bb0(%m_ij_129: f32 loc(callsite(#loc3 at #loc207)), %m_ij_130: f32 loc(callsite(#loc3 at #loc207))):
        %m_ij_131 = arith.maxnumf %m_ij_129, %m_ij_130 : f32 loc(#loc258)
        tt.reduce.return %m_ij_131 : f32 loc(#loc251)
      }) : (tensor<16x128xf32>) -> tensor<16xf32> loc(#loc251)
      %m_ij_98 = arith.maxnumf %m_i, %m_ij : tensor<16xf32> loc(#loc208)
      %p = tt.expand_dims %m_ij_98 {axis = 1 : i32} : tensor<16xf32> -> tensor<16x1xf32> loc(#loc209)
      %p_99 = tt.broadcast %p : tensor<16x1xf32> -> tensor<16x128xf32> loc(#loc210)
      %p_100 = arith.subf %qk_97, %p_99 : tensor<16x128xf32> loc(#loc210)
      %p_101 = math.exp2 %p_100 : tensor<16x128xf32> loc(#loc211)
      %l_ij = "tt.reduce"(%p_101) <{axis = 1 : i32}> ({
      ^bb0(%l_ij_129: f32 loc(callsite(#loc3 at #loc212)), %l_ij_130: f32 loc(callsite(#loc3 at #loc212))):
        %l_ij_131 = arith.addf %l_ij_129, %l_ij_130 : f32 loc(#loc259)
        tt.reduce.return %l_ij_131 : f32 loc(#loc253)
      }) : (tensor<16x128xf32>) -> tensor<16xf32> loc(#loc253)
      %acc_o_102 = arith.subf %m_i, %m_ij_98 : tensor<16xf32> loc(#loc213)
      %acc_o_103 = math.exp2 %acc_o_102 : tensor<16xf32> loc(#loc214)
      %acc_o_104 = tt.expand_dims %acc_o_103 {axis = 1 : i32} : tensor<16xf32> -> tensor<16x1xf32> loc(#loc215)
      %acc_o_105 = tt.broadcast %acc_o_104 : tensor<16x1xf32> -> tensor<16x128xf32> loc(#loc216)
      %acc_o_106 = arith.mulf %acc_o_65, %acc_o_105 : tensor<16x128xf32> loc(#loc216)
      %v = tt.expand_dims %pos_mask_71 {axis = 1 : i32} : tensor<128xi1> -> tensor<128x1xi1> loc(#loc217)
      %v_107 = tt.expand_dims %d_mask_23 {axis = 0 : i32} : tensor<128xi1> -> tensor<1x128xi1> loc(#loc218)
      %v_108 = tt.broadcast %v : tensor<128x1xi1> -> tensor<128x128xi1> loc(#loc219)
      %v_109 = tt.broadcast %v_107 : tensor<1x128xi1> -> tensor<128x128xi1> loc(#loc219)
      %v_110 = arith.andi %v_108, %v_109 : tensor<128x128xi1> loc(#loc219)
      %v_111 = tt.addptr %k_78, %stride_kv_kv : !tt.ptr<bf16>, i32 loc(#loc220)
      %v_112 = tt.splat %stride_kv_pos : i32 -> tensor<128x1xi32> loc(#loc221)
      %v_113 = arith.muli %k_87, %v_112 : tensor<128x1xi32> loc(#loc221)
      %v_114 = tt.splat %v_111 : !tt.ptr<bf16> -> tensor<128x1x!tt.ptr<bf16>> loc(#loc222)
      %v_115 = tt.addptr %v_114, %v_113 : tensor<128x1x!tt.ptr<bf16>>, tensor<128x1xi32> loc(#loc222)
      %v_116 = tt.splat %k_84 : i32 -> tensor<128x1xi32> loc(#loc223)
      %v_117 = tt.addptr %v_115, %v_116 : tensor<128x1x!tt.ptr<bf16>>, tensor<128x1xi32> loc(#loc223)
      %v_118 = tt.broadcast %v_117 : tensor<128x1x!tt.ptr<bf16>> -> tensor<128x128x!tt.ptr<bf16>> loc(#loc224)
      %v_119 = tt.broadcast %k_79 : tensor<1x128xi32> -> tensor<128x128xi32> loc(#loc224)
      %v_120 = tt.addptr %v_118, %v_119 : tensor<128x128x!tt.ptr<bf16>>, tensor<128x128xi32> loc(#loc224)
      %v_121 = tt.load %v_120, %v_110, %cst_2 : tensor<128x128x!tt.ptr<bf16>> loc(#loc225)
      %acc_o_122 = arith.truncf %p_101 : tensor<16x128xf32> to tensor<16x128xbf16> loc(#loc226)
      %acc_o_123 = tt.dot %acc_o_122, %v_121, %acc_o_106, inputPrecision = tf32 : tensor<16x128xbf16> * tensor<128x128xbf16> -> tensor<16x128xf32> loc(#loc227)
      %lse_i_124 = arith.subf %lse_i, %m_ij_98 : tensor<16xf32> loc(#loc228)
      %lse_i_125 = math.exp2 %lse_i_124 : tensor<16xf32> loc(#loc229)
      %lse_i_126 = arith.addf %lse_i_125, %l_ij : tensor<16xf32> loc(#loc230)
      %lse_i_127 = math.log2 %lse_i_126 : tensor<16xf32> loc(#loc231)
      %lse_i_128 = arith.addf %m_ij_98, %lse_i_127 : tensor<16xf32> loc(#loc232)
      scf.yield %m_ij_98, %lse_i_128, %acc_o_123, %cur_idx_ptr_67 : tensor<16xf32>, tensor<16xf32>, tensor<16x128xf32>, !tt.ptr<i32> loc(#loc100)
    } loc(#loc260)
    %3 = tt.elementwise_inline_asm "griddepcontrol.launch_dependents; // dummy $0" {constraints = "=r", packed_element = 1 : i32, pure = false} -> i32 loc(#loc101)
    %scale_53 = arith.cmpf ogt, %cur_idx_ptr_52#1, %cst_6 : tensor<16xf32> loc(#loc233)
    %scale_54 = arith.subf %cur_idx_ptr_52#0, %cur_idx_ptr_52#1 : tensor<16xf32> loc(#loc234)
    %scale_55 = math.exp2 %scale_54 : tensor<16xf32> loc(#loc235)
    %scale_56 = arith.select %scale_53, %scale_55, %scale : tensor<16xi1>, tensor<16xf32> loc(#loc236)
    %acc_o = tt.expand_dims %scale_56 {axis = 1 : i32} : tensor<16xf32> -> tensor<16x1xf32> loc(#loc237)
    %acc_o_57 = tt.broadcast %acc_o : tensor<16x1xf32> -> tensor<16x128xf32> loc(#loc238)
    %acc_o_58 = arith.mulf %cur_idx_ptr_52#2, %acc_o_57 : tensor<16x128xf32> loc(#loc238)
    %o_ptrs = arith.muli %0, %stride_o_c : i32 loc(#loc239)
    %o_ptrs_59 = tt.addptr %o_ptr, %o_ptrs : !tt.ptr<bf16>, i32 loc(#loc240)
    %o_ptrs_60 = arith.muli %pid_h, %stride_o_h : i32 loc(#loc241)
    %o_ptrs_61 = tt.addptr %o_ptrs_59, %o_ptrs_60 : !tt.ptr<bf16>, i32 loc(#loc242)
    %o_ptrs_62 = arith.extsi %stride_o_h : i32 to i64 loc(#loc243)
    %4 = arith.truncf %acc_o_58 : tensor<16x128xf32> to tensor<16x128xbf16> loc(#loc113)
    %5 = tt.splat %o_ptrs_61 : !tt.ptr<bf16> -> tensor<16x128x!tt.ptr<bf16>> loc(#loc114)
    %6 = tt.splat %o_ptrs_62 : i64 -> tensor<16x1xi64> loc(#loc114)
    %7 = arith.muli %q_31, %6 : tensor<16x1xi64> loc(#loc114)
    %8 = tt.broadcast %7 : tensor<16x1xi64> -> tensor<16x128xi64> loc(#loc114)
    %9 = arith.addi %8, %q_37 : tensor<16x128xi64> loc(#loc114)
    %10 = tt.addptr %5, %9 : tensor<16x128x!tt.ptr<bf16>>, tensor<16x128xi64> loc(#loc114)
    tt.store %10, %4, %q_50 : tensor<16x128x!tt.ptr<bf16>> loc(#loc114)
    %lse_ptrs = arith.muli %0, %stride_l_c : i32 loc(#loc244)
    %lse_ptrs_63 = tt.addptr %lse_ptr, %lse_ptrs : !tt.ptr<f32>, i32 loc(#loc245)
    %lse_ptrs_64 = tt.addptr %lse_ptrs_63, %pid_h : !tt.ptr<f32>, i32 loc(#loc246)
    %11 = tt.splat %lse_ptrs_64 : !tt.ptr<f32> -> tensor<16x!tt.ptr<f32>> loc(#loc1)
    %12 = tt.addptr %11, %q_30 : tensor<16x!tt.ptr<f32>>, tensor<16xi64> loc(#loc1)
    %13 = arith.cmpi sge, %q_30, %cst : tensor<16xi64> loc(#loc1)
    %14 = tt.splat %q_ptrs_26 : i64 -> tensor<16xi64> loc(#loc1)
    %15 = arith.cmpi slt, %q_30, %14 : tensor<16xi64> loc(#loc1)
    %16 = arith.andi %13, %15 : tensor<16xi1> loc(#loc1)
    tt.store %12, %cur_idx_ptr_52#1, %16 : tensor<16x!tt.ptr<f32>> loc(#loc1)
    tt.return loc(#loc118)
  } loc(#loc)
} loc(#loc)
#loc1 = loc("/usr/local/lib/python3.12/dist-packages/vllm/models/minimax_m3/common/ops/sparse_attn.py":381:23)
#loc2 = loc("/usr/local/lib/python3.12/dist-packages/vllm/models/minimax_m3/common/ops/sparse_attn.py":312:16)
#loc4 = loc("/usr/local/lib/python3.12/dist-packages/triton/language/standard.py":129:31)
#loc5 = loc("/usr/local/lib/python3.12/dist-packages/triton/language/standard.py":140:30)
#loc6 = loc("/usr/local/lib/python3.12/dist-packages/vllm/models/minimax_m3/common/ops/sparse_attn.py":362:80)
#loc7 = loc("/usr/local/lib/python3.12/dist-packages/vllm/models/minimax_m3/common/ops/sparse_attn.py":276:52)
#loc8 = loc("/usr/local/lib/python3.12/dist-packages/vllm/models/minimax_m3/common/ops/sparse_attn.py":293:36)
#loc9 = loc("/usr/local/lib/python3.12/dist-packages/vllm/models/minimax_m3/common/ops/sparse_attn.py":292:23)
#loc10 = loc("/usr/local/lib/python3.12/dist-packages/vllm/models/minimax_m3/common/ops/sparse_attn.py":268:32)
#loc11 = loc("/usr/local/lib/python3.12/dist-packages/vllm/models/minimax_m3/common/ops/sparse_attn.py":270:35)
#loc12 = loc("/usr/local/lib/python3.12/dist-packages/vllm/models/minimax_m3/common/ops/sparse_attn.py":270:53)
#loc13 = loc("/usr/local/lib/python3.12/dist-packages/vllm/models/minimax_m3/common/ops/sparse_attn.py":273:22)
#loc14 = loc("/usr/local/lib/python3.12/dist-packages/vllm/models/minimax_m3/common/ops/sparse_attn.py":274:32)
#loc15 = loc("/usr/local/lib/python3.12/dist-packages/vllm/models/minimax_m3/common/ops/sparse_attn.py":274:23)
#loc16 = loc("/usr/local/lib/python3.12/dist-packages/vllm/models/minimax_m3/common/ops/sparse_attn.py":275:21)
#loc17 = loc("/usr/local/lib/python3.12/dist-packages/vllm/models/minimax_m3/common/ops/sparse_attn.py":276:58)
#loc18 = loc("/usr/local/lib/python3.12/dist-packages/vllm/models/minimax_m3/common/ops/sparse_attn.py":277:31)
#loc19 = loc("/usr/local/lib/python3.12/dist-packages/vllm/models/minimax_m3/common/ops/sparse_attn.py":278:47)
#loc20 = loc("/usr/local/lib/python3.12/dist-packages/vllm/models/minimax_m3/common/ops/sparse_attn.py":281:8)
#loc21 = loc("/usr/local/lib/python3.12/dist-packages/vllm/models/minimax_m3/common/ops/sparse_attn.py":283:33)
#loc22 = loc("/usr/local/lib/python3.12/dist-packages/vllm/models/minimax_m3/common/ops/sparse_attn.py":283:22)
#loc23 = loc("/usr/local/lib/python3.12/dist-packages/vllm/models/minimax_m3/common/ops/sparse_attn.py":284:26)
#loc24 = loc("/usr/local/lib/python3.12/dist-packages/vllm/models/minimax_m3/common/ops/sparse_attn.py":284:45)
#loc25 = loc("/usr/local/lib/python3.12/dist-packages/vllm/models/minimax_m3/common/ops/sparse_attn.py":287:36)
#loc26 = loc("/usr/local/lib/python3.12/dist-packages/vllm/models/minimax_m3/common/ops/sparse_attn.py":287:39)
#loc27 = loc("/usr/local/lib/python3.12/dist-packages/vllm/models/minimax_m3/common/ops/sparse_attn.py":290:25)
#loc28 = loc("/usr/local/lib/python3.12/dist-packages/vllm/models/minimax_m3/common/ops/sparse_attn.py":291:32)
#loc29 = loc("/usr/local/lib/python3.12/dist-packages/vllm/models/minimax_m3/common/ops/sparse_attn.py":291:23)
#loc30 = loc("/usr/local/lib/python3.12/dist-packages/vllm/models/minimax_m3/common/ops/sparse_attn.py":292:66)
#loc31 = loc("/usr/local/lib/python3.12/dist-packages/vllm/models/minimax_m3/common/ops/sparse_attn.py":292:34)
#loc32 = loc("/usr/local/lib/python3.12/dist-packages/vllm/models/minimax_m3/common/ops/sparse_attn.py":293:42)
#loc33 = loc("/usr/local/lib/python3.12/dist-packages/triton/language/standard.py":293:36)
#loc35 = loc("/usr/local/lib/python3.12/dist-packages/triton/language/standard.py":263:15)
#loc36 = loc("/usr/local/lib/python3.12/dist-packages/vllm/models/minimax_m3/common/ops/sparse_attn.py":294:55)
#loc37 = loc("/usr/local/lib/python3.12/dist-packages/vllm/models/minimax_m3/common/ops/sparse_attn.py":296:25)
#loc38 = loc("/usr/local/lib/python3.12/dist-packages/vllm/models/minimax_m3/common/ops/sparse_attn.py":298:21)
#loc39 = loc("/usr/local/lib/python3.12/dist-packages/vllm/models/minimax_m3/common/ops/sparse_attn.py":299:40)
#loc40 = loc("/usr/local/lib/python3.12/dist-packages/vllm/models/minimax_m3/common/ops/sparse_attn.py":299:31)
#loc41 = loc("/usr/local/lib/python3.12/dist-packages/vllm/models/minimax_m3/common/ops/sparse_attn.py":305:49)
#loc42 = loc("/usr/local/lib/python3.12/dist-packages/vllm/models/minimax_m3/common/ops/sparse_attn.py":305:41)
#loc43 = loc("/usr/local/lib/python3.12/dist-packages/vllm/models/minimax_m3/common/ops/sparse_attn.py":310:8)
#loc44 = loc("/usr/local/lib/python3.12/dist-packages/vllm/models/minimax_m3/common/ops/sparse_attn.py":314:29)
#loc45 = loc("/usr/local/lib/python3.12/dist-packages/vllm/models/minimax_m3/common/ops/sparse_attn.py":315:40)
#loc46 = loc("/usr/local/lib/python3.12/dist-packages/vllm/models/minimax_m3/common/ops/sparse_attn.py":316:22)
#loc47 = loc("/usr/local/lib/python3.12/dist-packages/vllm/models/minimax_m3/common/ops/sparse_attn.py":317:36)
#loc48 = loc("/usr/local/lib/python3.12/dist-packages/vllm/models/minimax_m3/common/ops/sparse_attn.py":318:18)
#loc49 = loc("/usr/local/lib/python3.12/dist-packages/vllm/models/minimax_m3/common/ops/sparse_attn.py":319:32)
#loc50 = loc("/usr/local/lib/python3.12/dist-packages/vllm/models/minimax_m3/common/ops/sparse_attn.py":319:23)
#loc51 = loc("/usr/local/lib/python3.12/dist-packages/vllm/models/minimax_m3/common/ops/sparse_attn.py":319:40)
#loc52 = loc("/usr/local/lib/python3.12/dist-packages/vllm/models/minimax_m3/common/ops/sparse_attn.py":320:18)
#loc53 = loc("/usr/local/lib/python3.12/dist-packages/vllm/models/minimax_m3/common/ops/sparse_attn.py":321:25)
#loc54 = loc("/usr/local/lib/python3.12/dist-packages/vllm/models/minimax_m3/common/ops/sparse_attn.py":329:24)
#loc55 = loc("/usr/local/lib/python3.12/dist-packages/vllm/models/minimax_m3/common/ops/sparse_attn.py":329:44)
#loc56 = loc("/usr/local/lib/python3.12/dist-packages/vllm/models/minimax_m3/common/ops/sparse_attn.py":329:35)
#loc57 = loc("/usr/local/lib/python3.12/dist-packages/vllm/models/minimax_m3/common/ops/sparse_attn.py":324:21)
#loc58 = loc("/usr/local/lib/python3.12/dist-packages/vllm/models/minimax_m3/common/ops/sparse_attn.py":324:14)
#loc59 = loc("/usr/local/lib/python3.12/dist-packages/vllm/models/minimax_m3/common/ops/sparse_attn.py":326:20)
#loc60 = loc("/usr/local/lib/python3.12/dist-packages/vllm/models/minimax_m3/common/ops/sparse_attn.py":326:31)
#loc61 = loc("/usr/local/lib/python3.12/dist-packages/vllm/models/minimax_m3/common/ops/sparse_attn.py":326:14)
#loc62 = loc("/usr/local/lib/python3.12/dist-packages/vllm/models/minimax_m3/common/ops/sparse_attn.py":327:23)
#loc63 = loc("/usr/local/lib/python3.12/dist-packages/vllm/models/minimax_m3/common/ops/sparse_attn.py":327:14)
#loc64 = loc("/usr/local/lib/python3.12/dist-packages/vllm/models/minimax_m3/common/ops/sparse_attn.py":328:20)
#loc65 = loc("/usr/local/lib/python3.12/dist-packages/vllm/models/minimax_m3/common/ops/sparse_attn.py":328:14)
#loc66 = loc("/usr/local/lib/python3.12/dist-packages/vllm/models/minimax_m3/common/ops/sparse_attn.py":323:12)
#loc67 = loc("/usr/local/lib/python3.12/dist-packages/vllm/models/minimax_m3/common/ops/sparse_attn.py":335:45)
#loc68 = loc("/usr/local/lib/python3.12/dist-packages/vllm/models/minimax_m3/common/ops/sparse_attn.py":335:14)
#loc69 = loc("/usr/local/lib/python3.12/dist-packages/vllm/models/minimax_m3/common/ops/sparse_attn.py":336:24)
#loc70 = loc("/usr/local/lib/python3.12/dist-packages/vllm/models/minimax_m3/common/ops/sparse_attn.py":336:29)
#loc71 = loc("/usr/local/lib/python3.12/dist-packages/vllm/models/minimax_m3/common/ops/sparse_attn.py":336:14)
#loc72 = loc("/usr/local/lib/python3.12/dist-packages/triton/language/standard.py":191:40)
#loc74 = loc("/usr/local/lib/python3.12/dist-packages/triton/language/standard.py":170:27)
#loc75 = loc("/usr/local/lib/python3.12/dist-packages/vllm/models/minimax_m3/common/ops/sparse_attn.py":337:31)
#loc76 = loc("/usr/local/lib/python3.12/dist-packages/vllm/models/minimax_m3/common/ops/sparse_attn.py":338:30)
#loc77 = loc("/usr/local/lib/python3.12/dist-packages/vllm/models/minimax_m3/common/ops/sparse_attn.py":338:25)
#loc78 = loc("/usr/local/lib/python3.12/dist-packages/vllm/models/minimax_m3/common/ops/sparse_attn.py":338:20)
#loc80 = loc("/usr/local/lib/python3.12/dist-packages/vllm/models/minimax_m3/common/ops/sparse_attn.py":340:38)
#loc81 = loc("/usr/local/lib/python3.12/dist-packages/vllm/models/minimax_m3/common/ops/sparse_attn.py":340:32)
#loc82 = loc("/usr/local/lib/python3.12/dist-packages/vllm/models/minimax_m3/common/ops/sparse_attn.py":340:44)
#loc83 = loc("/usr/local/lib/python3.12/dist-packages/vllm/models/minimax_m3/common/ops/sparse_attn.py":340:24)
#loc84 = loc("/usr/local/lib/python3.12/dist-packages/vllm/models/minimax_m3/common/ops/sparse_attn.py":348:26)
#loc85 = loc("/usr/local/lib/python3.12/dist-packages/vllm/models/minimax_m3/common/ops/sparse_attn.py":348:44)
#loc86 = loc("/usr/local/lib/python3.12/dist-packages/vllm/models/minimax_m3/common/ops/sparse_attn.py":348:37)
#loc87 = loc("/usr/local/lib/python3.12/dist-packages/vllm/models/minimax_m3/common/ops/sparse_attn.py":344:14)
#loc88 = loc("/usr/local/lib/python3.12/dist-packages/vllm/models/minimax_m3/common/ops/sparse_attn.py":345:31)
#loc89 = loc("/usr/local/lib/python3.12/dist-packages/vllm/models/minimax_m3/common/ops/sparse_attn.py":345:14)
#loc90 = loc("/usr/local/lib/python3.12/dist-packages/vllm/models/minimax_m3/common/ops/sparse_attn.py":346:14)
#loc91 = loc("/usr/local/lib/python3.12/dist-packages/vllm/models/minimax_m3/common/ops/sparse_attn.py":347:14)
#loc92 = loc("/usr/local/lib/python3.12/dist-packages/vllm/models/minimax_m3/common/ops/sparse_attn.py":342:12)
#loc93 = loc("/usr/local/lib/python3.12/dist-packages/vllm/models/minimax_m3/common/ops/sparse_attn.py":353:29)
#loc94 = loc("/usr/local/lib/python3.12/dist-packages/vllm/models/minimax_m3/common/ops/sparse_attn.py":353:39)
#loc95 = loc("/usr/local/lib/python3.12/dist-packages/vllm/models/minimax_m3/common/ops/sparse_attn.py":355:47)
#loc96 = loc("/usr/local/lib/python3.12/dist-packages/vllm/models/minimax_m3/common/ops/sparse_attn.py":355:39)
#loc97 = loc("/usr/local/lib/python3.12/dist-packages/vllm/models/minimax_m3/common/ops/sparse_attn.py":355:55)
#loc98 = loc("/usr/local/lib/python3.12/dist-packages/vllm/models/minimax_m3/common/ops/sparse_attn.py":355:31)
#loc99 = loc("/usr/local/lib/python3.12/dist-packages/vllm/models/minimax_m3/common/ops/sparse_attn.py":355:23)
#loc100 = loc("/usr/local/lib/python3.12/dist-packages/vllm/models/minimax_m3/common/ops/sparse_attn.py":355:8)
#loc101 = loc("/usr/local/lib/python3.12/dist-packages/vllm/models/minimax_m3/common/ops/sparse_attn.py":358:8)
#loc102 = loc("/usr/local/lib/python3.12/dist-packages/vllm/models/minimax_m3/common/ops/sparse_attn.py":362:29)
#loc103 = loc("/usr/local/lib/python3.12/dist-packages/vllm/models/minimax_m3/common/ops/sparse_attn.py":362:58)
#loc104 = loc("/usr/local/lib/python3.12/dist-packages/vllm/models/minimax_m3/common/ops/sparse_attn.py":362:52)
#loc105 = loc("/usr/local/lib/python3.12/dist-packages/vllm/models/minimax_m3/common/ops/sparse_attn.py":362:66)
#loc106 = loc("/usr/local/lib/python3.12/dist-packages/vllm/models/minimax_m3/common/ops/sparse_attn.py":363:26)
#loc107 = loc("/usr/local/lib/python3.12/dist-packages/vllm/models/minimax_m3/common/ops/sparse_attn.py":363:20)
#loc108 = loc("/usr/local/lib/python3.12/dist-packages/vllm/models/minimax_m3/common/ops/sparse_attn.py":365:29)
#loc109 = loc("/usr/local/lib/python3.12/dist-packages/vllm/models/minimax_m3/common/ops/sparse_attn.py":365:21)
#loc110 = loc("/usr/local/lib/python3.12/dist-packages/vllm/models/minimax_m3/common/ops/sparse_attn.py":365:71)
#loc111 = loc("/usr/local/lib/python3.12/dist-packages/vllm/models/minimax_m3/common/ops/sparse_attn.py":365:63)
#loc112 = loc("/usr/local/lib/python3.12/dist-packages/vllm/models/minimax_m3/common/ops/sparse_attn.py":370:8)
#loc113 = loc("/usr/local/lib/python3.12/dist-packages/vllm/models/minimax_m3/common/ops/sparse_attn.py":372:30)
#loc114 = loc("/usr/local/lib/python3.12/dist-packages/vllm/models/minimax_m3/common/ops/sparse_attn.py":372:21)
#loc115 = loc("/usr/local/lib/python3.12/dist-packages/vllm/models/minimax_m3/common/ops/sparse_attn.py":374:31)
#loc116 = loc("/usr/local/lib/python3.12/dist-packages/vllm/models/minimax_m3/common/ops/sparse_attn.py":374:23)
#loc117 = loc("/usr/local/lib/python3.12/dist-packages/vllm/models/minimax_m3/common/ops/sparse_attn.py":374:65)
#loc118 = loc("/usr/local/lib/python3.12/dist-packages/vllm/models/minimax_m3/common/ops/sparse_attn.py":381:4)
#loc145 = loc("q"(#loc2))
#loc146 = loc("scale"(#loc6))
#loc147 = loc("chunk_size_topk"(#loc7))
#loc148 = loc("real_topk"(#loc8))
#loc149 = loc("topk_idx"(#loc9))
#loc150 = loc("sm_scale_log2e"(#loc10))
#loc151 = loc("req_id"(#loc13))
#loc152 = loc("q_offset"(#loc14))
#loc153 = loc("q_offset"(#loc15))
#loc154 = loc("pid_h"(#loc16))
#loc155 = loc("chunk_size_topk"(#loc17))
#loc156 = loc("chunk_start_topk"(#loc18))
#loc157 = loc("chunk_end_compiletime"(#loc19))
#loc158 = loc("seq_len"(#loc21))
#loc159 = loc("seq_len"(#loc22))
#loc160 = loc("query_pos"(#loc23))
#loc161 = loc("query_pos"(#loc24))
#loc162 = loc("kv_len"(#loc25))
#loc163 = loc("kv_len"(#loc26))
#loc164 = loc("off_t"(#loc27))
#loc165 = loc("idx_base"(#loc28))
#loc166 = loc("idx_base"(#loc29))
#loc167 = loc("topk_idx"(#loc30))
#loc168 = loc("topk_idx"(#loc31))
#loc169 = loc("real_topk"(#loc32))
#loc171 = loc("chunk_end_topk"(#loc36))
#loc172 = loc("off_n"(#loc37))
#loc173 = loc("d_mask"(#loc38))
#loc174 = loc("bt_row"(#loc39))
#loc175 = loc("bt_row"(#loc40))
#loc176 = loc("q_ptrs"(#loc41))
#loc177 = loc("q_ptrs"(#loc42))
#loc178 = loc("q_ptrs"(#loc43))
#loc179 = loc("cur_idx_ptr"(#loc44))
#loc180 = loc("m_i"(#loc45))
#loc181 = loc("blk"(#loc46))
#loc182 = loc("cur_idx_ptr"(#loc47))
#loc183 = loc("c"(#loc48))
#loc184 = loc("page"(#loc49))
#loc185 = loc("page"(#loc50))
#loc186 = loc("page"(#loc51))
#loc187 = loc("pos"(#loc52))
#loc188 = loc("pos_mask"(#loc53))
#loc189 = loc("k"(#loc54))
#loc190 = loc("k"(#loc55))
#loc191 = loc("k"(#loc56))
#loc192 = loc("k"(#loc57))
#loc193 = loc("k"(#loc58))
#loc194 = loc("k"(#loc59))
#loc195 = loc("k"(#loc60))
#loc196 = loc("k"(#loc61))
#loc197 = loc("k"(#loc62))
#loc198 = loc("k"(#loc63))
#loc199 = loc("k"(#loc64))
#loc200 = loc("k"(#loc65))
#loc201 = loc("k"(#loc66))
#loc202 = loc("qk"(#loc67))
#loc203 = loc("qk"(#loc68))
#loc204 = loc("qk"(#loc69))
#loc205 = loc("qk"(#loc70))
#loc206 = loc("qk"(#loc71))
#loc208 = loc("m_ij"(#loc75))
#loc209 = loc("p"(#loc76))
#loc210 = loc("p"(#loc77))
#loc211 = loc("p"(#loc78))
#loc213 = loc("acc_o"(#loc80))
#loc214 = loc("acc_o"(#loc81))
#loc215 = loc("acc_o"(#loc82))
#loc216 = loc("acc_o"(#loc83))
#loc217 = loc("v"(#loc84))
#loc218 = loc("v"(#loc85))
#loc219 = loc("v"(#loc86))
#loc220 = loc("v"(#loc87))
#loc221 = loc("v"(#loc88))
#loc222 = loc("v"(#loc89))
#loc223 = loc("v"(#loc90))
#loc224 = loc("v"(#loc91))
#loc225 = loc("v"(#loc92))
#loc226 = loc("acc_o"(#loc93))
#loc227 = loc("acc_o"(#loc94))
#loc228 = loc("lse_i"(#loc95))
#loc229 = loc("lse_i"(#loc96))
#loc230 = loc("lse_i"(#loc97))
#loc231 = loc("lse_i"(#loc98))
#loc232 = loc("lse_i"(#loc99))
#loc233 = loc("scale"(#loc102))
#loc234 = loc("scale"(#loc103))
#loc235 = loc("scale"(#loc104))
#loc236 = loc("scale"(#loc105))
#loc237 = loc("acc_o"(#loc106))
#loc238 = loc("acc_o"(#loc107))
#loc239 = loc("o_ptrs"(#loc108))
#loc240 = loc("o_ptrs"(#loc109))
#loc241 = loc("o_ptrs"(#loc110))
#loc242 = loc("o_ptrs"(#loc111))
#loc243 = loc("o_ptrs"(#loc112))
#loc244 = loc("lse_ptrs"(#loc115))
#loc245 = loc("lse_ptrs"(#loc116))
#loc246 = loc("lse_ptrs"(#loc117))
#loc247 = loc(callsite(#loc5 at #loc146))
#loc248 = loc(callsite(#loc33 at #loc170))
#loc250 = loc("lse_i"(#loc180))
#loc251 = loc(callsite(#loc72 at #loc207))
#loc253 = loc(callsite(#loc33 at #loc212))
#loc255 = loc(callsite(#loc4 at #loc247))
#loc256 = loc(callsite(#loc35 at #loc248))
#loc257 = loc("acc_o"(#loc250))
#loc258 = loc(callsite(#loc74 at #loc251))
#loc259 = loc(callsite(#loc35 at #loc253))
#loc260 = loc("cur_idx_ptr"(#loc257))
