#loc = loc("/usr/local/lib/python3.12/dist-packages/vllm/models/minimax_m3/common/ops/sparse_attn.py":227:0)
#loc144 = loc("/usr/local/lib/python3.12/dist-packages/triton/language/standard.py":287:0)
#loc146 = loc(unknown)
#loc149 = loc("/usr/local/lib/python3.12/dist-packages/triton/language/standard.py":262:0)
#loc157 = loc("/usr/local/lib/python3.12/dist-packages/triton/language/standard.py":177:0)
#loc161 = loc("/usr/local/lib/python3.12/dist-packages/triton/language/standard.py":169:0)
#loc165 = loc("/usr/local/lib/python3.12/dist-packages/triton/language/standard.py":133:0)
#loc169 = loc("q_ptr"(#loc))
#loc170 = loc("kv_cache_ptr"(#loc))
#loc171 = loc("t_ptr"(#loc))
#loc172 = loc("o_ptr"(#loc))
#loc173 = loc("lse_ptr"(#loc))
#loc174 = loc("block_table_ptr"(#loc))
#loc175 = loc("seq_lens"(#loc))
#loc176 = loc("gqa_group_size"(#loc))
#loc177 = loc("head_dim"(#loc))
#loc178 = loc("max_topk"(#loc))
#loc179 = loc("sm_scale"(#loc))
#loc180 = loc("decode_query_len"(#loc))
#loc181 = loc("stride_qn"(#loc))
#loc182 = loc("stride_qh"(#loc))
#loc183 = loc("stride_kv_blk"(#loc))
#loc184 = loc("stride_kv_kv"(#loc))
#loc185 = loc("stride_kv_pos"(#loc))
#loc186 = loc("stride_kv_h"(#loc))
#loc187 = loc("stride_th"(#loc))
#loc188 = loc("stride_tn"(#loc))
#loc189 = loc("stride_o_c"(#loc))
#loc190 = loc("stride_o_b"(#loc))
#loc191 = loc("stride_o_h"(#loc))
#loc192 = loc("stride_l_c"(#loc))
#loc193 = loc("stride_l_b"(#loc))
#loc194 = loc("stride_bt_b"(#loc))
#loc329 = loc("input"(#loc144))
#loc330 = loc("a"(#loc149))
#loc331 = loc("b"(#loc149))
#loc332 = loc("input"(#loc157))
#loc333 = loc("a"(#loc161))
#loc334 = loc("b"(#loc161))
#loc335 = loc("input"(#loc165))
module {
  tt.func public @_gqa_sparse_decode_kernel(%q_ptr: !tt.ptr<bf16> {tt.divisibility = 16 : i32} loc("q_ptr"(#loc)), %kv_cache_ptr: !tt.ptr<bf16> {tt.divisibility = 16 : i32} loc("kv_cache_ptr"(#loc)), %t_ptr: !tt.ptr<i32> {tt.divisibility = 16 : i32} loc("t_ptr"(#loc)), %o_ptr: !tt.ptr<bf16> {tt.divisibility = 16 : i32} loc("o_ptr"(#loc)), %lse_ptr: !tt.ptr<f32> {tt.divisibility = 16 : i32} loc("lse_ptr"(#loc)), %block_table_ptr: !tt.ptr<i32> {tt.divisibility = 16 : i32} loc("block_table_ptr"(#loc)), %seq_lens: !tt.ptr<i32> {tt.divisibility = 16 : i32} loc("seq_lens"(#loc)), %gqa_group_size: i32 {tt.divisibility = 16 : i32} loc("gqa_group_size"(#loc)), %head_dim: i32 {tt.divisibility = 16 : i32} loc("head_dim"(#loc)), %max_topk: i32 {tt.divisibility = 16 : i32} loc("max_topk"(#loc)), %sm_scale: f32 loc("sm_scale"(#loc)), %decode_query_len: i32 loc("decode_query_len"(#loc)), %stride_qn: i32 {tt.divisibility = 16 : i32} loc("stride_qn"(#loc)), %stride_qh: i32 {tt.divisibility = 16 : i32} loc("stride_qh"(#loc)), %stride_kv_blk: i32 {tt.divisibility = 16 : i32} loc("stride_kv_blk"(#loc)), %stride_kv_kv: i32 {tt.divisibility = 16 : i32} loc("stride_kv_kv"(#loc)), %stride_kv_pos: i32 {tt.divisibility = 16 : i32} loc("stride_kv_pos"(#loc)), %stride_kv_h: i32 {tt.divisibility = 16 : i32} loc("stride_kv_h"(#loc)), %stride_th: i32 {tt.divisibility = 16 : i32} loc("stride_th"(#loc)), %stride_tn: i32 {tt.divisibility = 16 : i32} loc("stride_tn"(#loc)), %stride_o_c: i32 {tt.divisibility = 16 : i32} loc("stride_o_c"(#loc)), %stride_o_b: i32 {tt.divisibility = 16 : i32} loc("stride_o_b"(#loc)), %stride_o_h: i32 {tt.divisibility = 16 : i32} loc("stride_o_h"(#loc)), %stride_l_c: i32 {tt.divisibility = 16 : i32} loc("stride_l_c"(#loc)), %stride_l_b: i32 {tt.divisibility = 16 : i32} loc("stride_l_b"(#loc)), %stride_bt_b: i32 {tt.divisibility = 16 : i32} loc("stride_bt_b"(#loc))) attributes {noinline = false} {
    %sm_scale_log2e = arith.constant 1.44269502 : f32 loc(#loc195)
    %sm_scale_log2e_0 = arith.constant 1.44269502 : f32 loc(#loc195)
    %sm_scale_log2e_1 = arith.mulf %sm_scale, %sm_scale_log2e_0 : f32 loc(#loc195)
    %0 = tt.get_program_id x : i32 loc(#loc2)
    %1 = tt.get_program_id y : i32 loc(#loc3)
    %pid_b = arith.constant 1 : i32 loc(#loc196)
    %pid_b_2 = arith.constant 1 : i32 loc(#loc196)
    %pid_b_3 = arith.remsi %0, %pid_b_2 : i32 loc(#loc196)
    %pid_c = arith.constant 1 : i32 loc(#loc197)
    %pid_c_4 = arith.constant 1 : i32 loc(#loc197)
    %pid_c_5 = arith.divsi %0, %pid_c_4 : i32 loc(#loc197)
    %req_id = arith.divsi %pid_b_3, %decode_query_len : i32 loc(#loc198)
    %q_offset = arith.extsi %req_id : i32 to i64 loc(#loc199)
    %q_offset_6 = arith.extsi %decode_query_len : i32 to i64 loc(#loc199)
    %q_offset_7 = arith.muli %q_offset, %q_offset_6 : i64 loc(#loc199)
    %q_offset_8 = arith.constant 2147483647 : i64 loc(#loc199)
    %q_offset_9 = arith.constant -2147483648 : i64 loc(#loc199)
    %q_offset_10 = arith.cmpi sle, %q_offset_7, %q_offset_8 : i64 loc(#loc199)
    %q_offset_11 = arith.cmpi sge, %q_offset_7, %q_offset_9 : i64 loc(#loc199)
    %q_offset_12 = arith.andi %q_offset_10, %q_offset_11 : i1 loc(#loc199)
    %q_offset_13 = arith.muli %req_id, %decode_query_len : i32 loc(#loc199)
    %q_offset_14 = arith.extsi %pid_b_3 : i32 to i64 loc(#loc200)
    %q_offset_15 = arith.extsi %q_offset_13 : i32 to i64 loc(#loc200)
    %q_offset_16 = arith.subi %q_offset_14, %q_offset_15 : i64 loc(#loc200)
    %q_offset_17 = arith.constant 2147483647 : i64 loc(#loc200)
    %q_offset_18 = arith.constant -2147483648 : i64 loc(#loc200)
    %q_offset_19 = arith.cmpi sle, %q_offset_16, %q_offset_17 : i64 loc(#loc200)
    %q_offset_20 = arith.cmpi sge, %q_offset_16, %q_offset_18 : i64 loc(#loc200)
    %q_offset_21 = arith.andi %q_offset_19, %q_offset_20 : i1 loc(#loc200)
    %q_offset_22 = arith.subi %pid_b_3, %q_offset_13 : i32 loc(#loc200)
    %pid_h = arith.extsi %1 : i32 to i64 loc(#loc201)
    %pid_h_23 = arith.extsi %gqa_group_size : i32 to i64 loc(#loc201)
    %pid_h_24 = arith.muli %pid_h, %pid_h_23 : i64 loc(#loc201)
    %pid_h_25 = arith.constant 2147483647 : i64 loc(#loc201)
    %pid_h_26 = arith.constant -2147483648 : i64 loc(#loc201)
    %pid_h_27 = arith.cmpi sle, %pid_h_24, %pid_h_25 : i64 loc(#loc201)
    %pid_h_28 = arith.cmpi sge, %pid_h_24, %pid_h_26 : i64 loc(#loc201)
    %pid_h_29 = arith.andi %pid_h_27, %pid_h_28 : i1 loc(#loc201)
    %pid_h_30 = arith.muli %1, %gqa_group_size : i32 loc(#loc201)
    %chunk_size_topk = arith.constant 16 : i32 loc(#loc202)
    %chunk_size_topk_31 = arith.constant 16 : i32 loc(#loc202)
    %chunk_size_topk_32 = arith.extsi %max_topk : i32 to i64 loc(#loc202)
    %chunk_size_topk_33 = arith.extsi %chunk_size_topk_31 : i32 to i64 loc(#loc202)
    %chunk_size_topk_34 = arith.addi %chunk_size_topk_32, %chunk_size_topk_33 : i64 loc(#loc202)
    %chunk_size_topk_35 = arith.constant 2147483647 : i64 loc(#loc202)
    %chunk_size_topk_36 = arith.constant -2147483648 : i64 loc(#loc202)
    %chunk_size_topk_37 = arith.cmpi sle, %chunk_size_topk_34, %chunk_size_topk_35 : i64 loc(#loc202)
    %chunk_size_topk_38 = arith.cmpi sge, %chunk_size_topk_34, %chunk_size_topk_36 : i64 loc(#loc202)
    %chunk_size_topk_39 = arith.andi %chunk_size_topk_37, %chunk_size_topk_38 : i1 loc(#loc202)
    %chunk_size_topk_40 = arith.addi %max_topk, %chunk_size_topk_31 : i32 loc(#loc202)
    %chunk_size_topk_41 = arith.constant 1 : i32 loc(#loc203)
    %chunk_size_topk_42 = arith.constant 1 : i32 loc(#loc203)
    %chunk_size_topk_43 = arith.extsi %chunk_size_topk_40 : i32 to i64 loc(#loc203)
    %chunk_size_topk_44 = arith.extsi %chunk_size_topk_42 : i32 to i64 loc(#loc203)
    %chunk_size_topk_45 = arith.subi %chunk_size_topk_43, %chunk_size_topk_44 : i64 loc(#loc203)
    %chunk_size_topk_46 = arith.constant 2147483647 : i64 loc(#loc203)
    %chunk_size_topk_47 = arith.constant -2147483648 : i64 loc(#loc203)
    %chunk_size_topk_48 = arith.cmpi sle, %chunk_size_topk_45, %chunk_size_topk_46 : i64 loc(#loc203)
    %chunk_size_topk_49 = arith.cmpi sge, %chunk_size_topk_45, %chunk_size_topk_47 : i64 loc(#loc203)
    %chunk_size_topk_50 = arith.andi %chunk_size_topk_48, %chunk_size_topk_49 : i1 loc(#loc203)
    %chunk_size_topk_51 = arith.subi %chunk_size_topk_40, %chunk_size_topk_42 : i32 loc(#loc203)
    %chunk_size_topk_52 = arith.constant 16 : i32 loc(#loc204)
    %chunk_size_topk_53 = arith.constant 16 : i32 loc(#loc204)
    %chunk_size_topk_54 = arith.divsi %chunk_size_topk_51, %chunk_size_topk_53 : i32 loc(#loc204)
    %chunk_start_topk = arith.extsi %pid_c_5 : i32 to i64 loc(#loc205)
    %chunk_start_topk_55 = arith.extsi %chunk_size_topk_54 : i32 to i64 loc(#loc205)
    %chunk_start_topk_56 = arith.muli %chunk_start_topk, %chunk_start_topk_55 : i64 loc(#loc205)
    %chunk_start_topk_57 = arith.constant 2147483647 : i64 loc(#loc205)
    %chunk_start_topk_58 = arith.constant -2147483648 : i64 loc(#loc205)
    %chunk_start_topk_59 = arith.cmpi sle, %chunk_start_topk_56, %chunk_start_topk_57 : i64 loc(#loc205)
    %chunk_start_topk_60 = arith.cmpi sge, %chunk_start_topk_56, %chunk_start_topk_58 : i64 loc(#loc205)
    %chunk_start_topk_61 = arith.andi %chunk_start_topk_59, %chunk_start_topk_60 : i1 loc(#loc205)
    %chunk_start_topk_62 = arith.muli %pid_c_5, %chunk_size_topk_54 : i32 loc(#loc205)
    %chunk_end_compiletime = arith.extsi %chunk_start_topk_62 : i32 to i64 loc(#loc206)
    %chunk_end_compiletime_63 = arith.extsi %chunk_size_topk_54 : i32 to i64 loc(#loc206)
    %chunk_end_compiletime_64 = arith.addi %chunk_end_compiletime, %chunk_end_compiletime_63 : i64 loc(#loc206)
    %chunk_end_compiletime_65 = arith.constant 2147483647 : i64 loc(#loc206)
    %chunk_end_compiletime_66 = arith.constant -2147483648 : i64 loc(#loc206)
    %chunk_end_compiletime_67 = arith.cmpi sle, %chunk_end_compiletime_64, %chunk_end_compiletime_65 : i64 loc(#loc206)
    %chunk_end_compiletime_68 = arith.cmpi sge, %chunk_end_compiletime_64, %chunk_end_compiletime_66 : i64 loc(#loc206)
    %chunk_end_compiletime_69 = arith.andi %chunk_end_compiletime_67, %chunk_end_compiletime_68 : i1 loc(#loc206)
    %chunk_end_compiletime_70 = arith.addi %chunk_start_topk_62, %chunk_size_topk_54 : i32 loc(#loc206)
    %2 = tt.elementwise_inline_asm "griddepcontrol.wait; // dummy $0" {constraints = "=r", packed_element = 1 : i32, pure = false} -> i32 loc(#loc15)
    %seq_len = tt.addptr %seq_lens, %req_id : !tt.ptr<i32>, i32 loc(#loc207)
    %seq_len_71 = tt.load %seq_len : !tt.ptr<i32> loc(#loc208)
    %query_pos = arith.extsi %seq_len_71 : i32 to i64 loc(#loc209)
    %query_pos_72 = arith.extsi %decode_query_len : i32 to i64 loc(#loc209)
    %query_pos_73 = arith.subi %query_pos, %query_pos_72 : i64 loc(#loc209)
    %query_pos_74 = arith.constant 2147483647 : i64 loc(#loc209)
    %query_pos_75 = arith.constant -2147483648 : i64 loc(#loc209)
    %query_pos_76 = arith.cmpi sle, %query_pos_73, %query_pos_74 : i64 loc(#loc209)
    %query_pos_77 = arith.cmpi sge, %query_pos_73, %query_pos_75 : i64 loc(#loc209)
    %query_pos_78 = arith.andi %query_pos_76, %query_pos_77 : i1 loc(#loc209)
    %query_pos_79 = arith.subi %seq_len_71, %decode_query_len : i32 loc(#loc209)
    %query_pos_80 = arith.extsi %query_pos_79 : i32 to i64 loc(#loc210)
    %query_pos_81 = arith.extsi %q_offset_22 : i32 to i64 loc(#loc210)
    %query_pos_82 = arith.addi %query_pos_80, %query_pos_81 : i64 loc(#loc210)
    %query_pos_83 = arith.constant 2147483647 : i64 loc(#loc210)
    %query_pos_84 = arith.constant -2147483648 : i64 loc(#loc210)
    %query_pos_85 = arith.cmpi sle, %query_pos_82, %query_pos_83 : i64 loc(#loc210)
    %query_pos_86 = arith.cmpi sge, %query_pos_82, %query_pos_84 : i64 loc(#loc210)
    %query_pos_87 = arith.andi %query_pos_85, %query_pos_86 : i1 loc(#loc210)
    %query_pos_88 = arith.addi %query_pos_79, %q_offset_22 : i32 loc(#loc210)
    %kv_len = arith.constant 1 : i32 loc(#loc211)
    %kv_len_89 = arith.constant 1 : i32 loc(#loc211)
    %kv_len_90 = arith.extsi %query_pos_88 : i32 to i64 loc(#loc211)
    %kv_len_91 = arith.extsi %kv_len_89 : i32 to i64 loc(#loc211)
    %kv_len_92 = arith.addi %kv_len_90, %kv_len_91 : i64 loc(#loc211)
    %kv_len_93 = arith.constant 2147483647 : i64 loc(#loc211)
    %kv_len_94 = arith.constant -2147483648 : i64 loc(#loc211)
    %kv_len_95 = arith.cmpi sle, %kv_len_92, %kv_len_93 : i64 loc(#loc211)
    %kv_len_96 = arith.cmpi sge, %kv_len_92, %kv_len_94 : i64 loc(#loc211)
    %kv_len_97 = arith.andi %kv_len_95, %kv_len_96 : i1 loc(#loc211)
    %kv_len_98 = arith.addi %query_pos_88, %kv_len_89 : i32 loc(#loc211)
    %kv_len_99 = arith.constant 0 : i32 loc(#loc212)
    %kv_len_100 = arith.maxsi %kv_len_98, %kv_len_99 : i32 loc(#loc212)
    %off_t = tt.make_range {end = 16 : i32, start = 0 : i32} : tensor<16xi32> loc(#loc213)
    %idx_base = arith.extsi %1 : i32 to i64 loc(#loc214)
    %idx_base_101 = arith.extsi %stride_th : i32 to i64 loc(#loc214)
    %idx_base_102 = arith.muli %idx_base, %idx_base_101 : i64 loc(#loc214)
    %idx_base_103 = arith.constant 2147483647 : i64 loc(#loc214)
    %idx_base_104 = arith.constant -2147483648 : i64 loc(#loc214)
    %idx_base_105 = arith.cmpi sle, %idx_base_102, %idx_base_103 : i64 loc(#loc214)
    %idx_base_106 = arith.cmpi sge, %idx_base_102, %idx_base_104 : i64 loc(#loc214)
    %idx_base_107 = arith.andi %idx_base_105, %idx_base_106 : i1 loc(#loc214)
    %idx_base_108 = arith.muli %1, %stride_th : i32 loc(#loc214)
    %idx_base_109 = tt.addptr %t_ptr, %idx_base_108 : !tt.ptr<i32>, i32 loc(#loc215)
    %idx_base_110 = arith.extsi %pid_b_3 : i32 to i64 loc(#loc216)
    %idx_base_111 = arith.extsi %stride_tn : i32 to i64 loc(#loc216)
    %idx_base_112 = arith.muli %idx_base_110, %idx_base_111 : i64 loc(#loc216)
    %idx_base_113 = arith.constant 2147483647 : i64 loc(#loc216)
    %idx_base_114 = arith.constant -2147483648 : i64 loc(#loc216)
    %idx_base_115 = arith.cmpi sle, %idx_base_112, %idx_base_113 : i64 loc(#loc216)
    %idx_base_116 = arith.cmpi sge, %idx_base_112, %idx_base_114 : i64 loc(#loc216)
    %idx_base_117 = arith.andi %idx_base_115, %idx_base_116 : i1 loc(#loc216)
    %idx_base_118 = arith.muli %pid_b_3, %stride_tn : i32 loc(#loc216)
    %idx_base_119 = tt.addptr %idx_base_109, %idx_base_118 : !tt.ptr<i32>, i32 loc(#loc217)
    %topk_idx = tt.splat %max_topk : i32 -> tensor<16xi32> loc(#loc218)
    %topk_idx_120 = arith.cmpi slt, %off_t, %topk_idx : tensor<16xi32> loc(#loc218)
    %topk_idx_121 = arith.constant 1 : i32 loc(#loc219)
    %topk_idx_122 = arith.constant 1 : i32 loc(#loc219)
    %topk_idx_123 = arith.constant dense<1> : tensor<16xi32> loc(#loc219)
    %topk_idx_124 = arith.extsi %off_t : tensor<16xi32> to tensor<16xi64> loc(#loc219)
    %topk_idx_125 = arith.extsi %topk_idx_123 : tensor<16xi32> to tensor<16xi64> loc(#loc219)
    %topk_idx_126 = arith.muli %topk_idx_124, %topk_idx_125 : tensor<16xi64> loc(#loc219)
    %topk_idx_127 = arith.constant 2147483647 : i64 loc(#loc219)
    %topk_idx_128 = arith.constant -2147483648 : i64 loc(#loc219)
    %topk_idx_129 = arith.constant dense<2147483647> : tensor<16xi64> loc(#loc219)
    %topk_idx_130 = arith.cmpi sle, %topk_idx_126, %topk_idx_129 : tensor<16xi64> loc(#loc219)
    %topk_idx_131 = arith.constant dense<-2147483648> : tensor<16xi64> loc(#loc219)
    %topk_idx_132 = arith.cmpi sge, %topk_idx_126, %topk_idx_131 : tensor<16xi64> loc(#loc219)
    %topk_idx_133 = arith.andi %topk_idx_130, %topk_idx_132 : tensor<16xi1> loc(#loc219)
    %topk_idx_134 = arith.muli %off_t, %topk_idx_123 : tensor<16xi32> loc(#loc219)
    %topk_idx_135 = tt.splat %idx_base_119 : !tt.ptr<i32> -> tensor<16x!tt.ptr<i32>> loc(#loc220)
    %topk_idx_136 = tt.addptr %topk_idx_135, %topk_idx_134 : tensor<16x!tt.ptr<i32>>, tensor<16xi32> loc(#loc220)
    %topk_idx_137 = arith.constant -1 : i32 loc(#loc221)
    %topk_idx_138 = arith.constant dense<-1> : tensor<16xi32> loc(#loc221)
    %topk_idx_139 = tt.load %topk_idx_136, %topk_idx_120, %topk_idx_138 : tensor<16x!tt.ptr<i32>> loc(#loc221)
    %real_topk = arith.constant 0 : i32 loc(#loc222)
    %real_topk_140 = arith.constant dense<0> : tensor<16xi32> loc(#loc222)
    %real_topk_141 = arith.cmpi sge, %topk_idx_139, %real_topk_140 : tensor<16xi32> loc(#loc222)
    %real_topk_142 = arith.extui %real_topk_141 : tensor<16xi1> to tensor<16xi32> loc(#loc223)
    %real_topk_143 = tt.call @"triton.language.standard.sum__i32S16S__(1,)cconstexpr_0__(2,)cconstexpr_False__(3,)cNone"(%real_topk_142) : (tensor<16xi32>) -> i32 loc(#loc224)
    %chunk_end_topk = arith.minsi %chunk_end_compiletime_70, %real_topk_143 : i32 loc(#loc225)
    %off_n = tt.make_range {end = 128 : i32, start = 0 : i32} : tensor<128xi32> loc(#loc226)
    %off_d = tt.make_range {end = 128 : i32, start = 0 : i32} : tensor<128xi32> loc(#loc227)
    %d_mask = tt.splat %head_dim : i32 -> tensor<128xi32> loc(#loc228)
    %d_mask_144 = arith.cmpi slt, %off_d, %d_mask : tensor<128xi32> loc(#loc228)
    %bt_row = arith.extsi %req_id : i32 to i64 loc(#loc229)
    %bt_row_145 = arith.extsi %stride_bt_b : i32 to i64 loc(#loc229)
    %bt_row_146 = arith.muli %bt_row, %bt_row_145 : i64 loc(#loc229)
    %bt_row_147 = arith.constant 2147483647 : i64 loc(#loc229)
    %bt_row_148 = arith.constant -2147483648 : i64 loc(#loc229)
    %bt_row_149 = arith.cmpi sle, %bt_row_146, %bt_row_147 : i64 loc(#loc229)
    %bt_row_150 = arith.cmpi sge, %bt_row_146, %bt_row_148 : i64 loc(#loc229)
    %bt_row_151 = arith.andi %bt_row_149, %bt_row_150 : i1 loc(#loc229)
    %bt_row_152 = arith.muli %req_id, %stride_bt_b : i32 loc(#loc229)
    %bt_row_153 = tt.addptr %block_table_ptr, %bt_row_152 : !tt.ptr<i32>, i32 loc(#loc230)
    %m_i = arith.constant 0xFF800000 : f32 loc(#loc231)
    %m_i_154 = arith.constant dense<0xFF800000> : tensor<16xf32> loc(#loc231)
    %lse_i = arith.constant 0xFF800000 : f32 loc(#loc232)
    %lse_i_155 = arith.constant dense<0xFF800000> : tensor<16xf32> loc(#loc232)
    %acc_o = tt.call @"triton.language.standard.zeros____(0, 0)cconstexpr_16__(0, 1)cconstexpr_128__(1,)cconstexpr_fp32_"() : () -> tensor<16x128xf32> loc(#loc233)
    %q_ptrs = arith.extsi %pid_b_3 : i32 to i64 loc(#loc234)
    %q_ptrs_156 = arith.extsi %stride_qn : i32 to i64 loc(#loc234)
    %q_ptrs_157 = arith.muli %q_ptrs, %q_ptrs_156 : i64 loc(#loc234)
    %q_ptrs_158 = arith.constant 2147483647 : i64 loc(#loc234)
    %q_ptrs_159 = arith.constant -2147483648 : i64 loc(#loc234)
    %q_ptrs_160 = arith.cmpi sle, %q_ptrs_157, %q_ptrs_158 : i64 loc(#loc234)
    %q_ptrs_161 = arith.cmpi sge, %q_ptrs_157, %q_ptrs_159 : i64 loc(#loc234)
    %q_ptrs_162 = arith.andi %q_ptrs_160, %q_ptrs_161 : i1 loc(#loc234)
    %q_ptrs_163 = arith.muli %pid_b_3, %stride_qn : i32 loc(#loc234)
    %q_ptrs_164 = tt.addptr %q_ptr, %q_ptrs_163 : !tt.ptr<bf16>, i32 loc(#loc235)
    %q_ptrs_165 = arith.extsi %pid_h_30 : i32 to i64 loc(#loc236)
    %q_ptrs_166 = arith.extsi %stride_qh : i32 to i64 loc(#loc236)
    %q_ptrs_167 = arith.muli %q_ptrs_165, %q_ptrs_166 : i64 loc(#loc236)
    %q_ptrs_168 = arith.constant 2147483647 : i64 loc(#loc236)
    %q_ptrs_169 = arith.constant -2147483648 : i64 loc(#loc236)
    %q_ptrs_170 = arith.cmpi sle, %q_ptrs_167, %q_ptrs_168 : i64 loc(#loc236)
    %q_ptrs_171 = arith.cmpi sge, %q_ptrs_167, %q_ptrs_169 : i64 loc(#loc236)
    %q_ptrs_172 = arith.andi %q_ptrs_170, %q_ptrs_171 : i1 loc(#loc236)
    %q_ptrs_173 = arith.muli %pid_h_30, %stride_qh : i32 loc(#loc236)
    %q_ptrs_174 = tt.addptr %q_ptrs_164, %q_ptrs_173 : !tt.ptr<bf16>, i32 loc(#loc237)
    %q_ptrs_175 = arith.extsi %gqa_group_size : i32 to i64 loc(#loc238)
    %q_ptrs_176 = arith.extsi %head_dim : i32 to i64 loc(#loc238)
    %q_ptrs_177 = arith.extsi %stride_qh : i32 to i64 loc(#loc238)
    %q_ptrs_178 = arith.constant 1 : i64 loc(#loc238)
    %q_ptrs_179 = arith.constant 0 : i32 loc(#loc238)
    %q_ptrs_180 = arith.constant 0 : i32 loc(#loc238)
    %q_ptrs_181 = tt.make_tensor_ptr %q_ptrs_174, [%q_ptrs_175, %q_ptrs_176], [%q_ptrs_177, %q_ptrs_178], [%q_ptrs_179, %q_ptrs_180] {order = array<i32: 1, 0>} : <tensor<16x128xbf16>> loc(#loc238)
    %q = tt.load %q_ptrs_181 {boundaryCheck = array<i32: 0, 1>, padding = 1 : i32} : !tt.ptr<tensor<16x128xbf16>> loc(#loc239)
    %cur_idx_ptr = arith.constant 1 : i32 loc(#loc240)
    %cur_idx_ptr_182 = arith.constant 1 : i32 loc(#loc240)
    %cur_idx_ptr_183 = arith.extsi %chunk_start_topk_62 : i32 to i64 loc(#loc240)
    %cur_idx_ptr_184 = arith.extsi %cur_idx_ptr_182 : i32 to i64 loc(#loc240)
    %cur_idx_ptr_185 = arith.muli %cur_idx_ptr_183, %cur_idx_ptr_184 : i64 loc(#loc240)
    %cur_idx_ptr_186 = arith.constant 2147483647 : i64 loc(#loc240)
    %cur_idx_ptr_187 = arith.constant -2147483648 : i64 loc(#loc240)
    %cur_idx_ptr_188 = arith.cmpi sle, %cur_idx_ptr_185, %cur_idx_ptr_186 : i64 loc(#loc240)
    %cur_idx_ptr_189 = arith.cmpi sge, %cur_idx_ptr_185, %cur_idx_ptr_187 : i64 loc(#loc240)
    %cur_idx_ptr_190 = arith.andi %cur_idx_ptr_188, %cur_idx_ptr_189 : i1 loc(#loc240)
    %cur_idx_ptr_191 = arith.muli %chunk_start_topk_62, %cur_idx_ptr_182 : i32 loc(#loc240)
    %cur_idx_ptr_192 = tt.addptr %idx_base_119, %cur_idx_ptr_191 : !tt.ptr<i32>, i32 loc(#loc241)
    %c1_i32 = arith.constant 1 : i32 loc(#loc51)
    %3 = arith.bitcast %chunk_start_topk_62 : i32 to i32 loc(#loc51)
    %4 = arith.bitcast %chunk_end_topk : i32 to i32 loc(#loc51)
    %5 = arith.bitcast %c1_i32 : i32 to i32 loc(#loc51)
    %6 = ub.poison : i32 loc(#loc51)
    %cur_idx_ptr_193:4 = scf.for %_ = %3 to %4 step %5 iter_args(%m_i_274 = %m_i_154, %lse_i_275 = %lse_i_155, %acc_o_276 = %acc_o, %cur_idx_ptr_277 = %cur_idx_ptr_192) -> (tensor<16xf32>, tensor<16xf32>, tensor<16x128xf32>, !tt.ptr<i32>)  : i32 {
      %blk = tt.load %cur_idx_ptr_277 : !tt.ptr<i32> loc(#loc243)
      %cur_idx_ptr_278 = arith.constant 1 : i32 loc(#loc244)
      %cur_idx_ptr_279 = tt.addptr %cur_idx_ptr_277, %cur_idx_ptr_278 : !tt.ptr<i32>, i32 loc(#loc244)
      %c = arith.constant 128 : i32 loc(#loc245)
      %c_280 = arith.constant 128 : i32 loc(#loc245)
      %c_281 = arith.extsi %blk : i32 to i64 loc(#loc245)
      %c_282 = arith.extsi %c_280 : i32 to i64 loc(#loc245)
      %c_283 = arith.muli %c_281, %c_282 : i64 loc(#loc245)
      %c_284 = arith.constant 2147483647 : i64 loc(#loc245)
      %c_285 = arith.constant -2147483648 : i64 loc(#loc245)
      %c_286 = arith.cmpi sle, %c_283, %c_284 : i64 loc(#loc245)
      %c_287 = arith.cmpi sge, %c_283, %c_285 : i64 loc(#loc245)
      %c_288 = arith.andi %c_286, %c_287 : i1 loc(#loc245)
      %c_289 = arith.muli %blk, %c_280 : i32 loc(#loc245)
      %page = tt.addptr %bt_row_153, %blk : !tt.ptr<i32>, i32 loc(#loc246)
      %page_290 = tt.load %page : !tt.ptr<i32> loc(#loc247)
      %page_291 = arith.extsi %page_290 : i32 to i64 loc(#loc248)
      %pos = tt.splat %c_289 : i32 -> tensor<128xi32> loc(#loc249)
      %pos_292 = arith.extsi %pos : tensor<128xi32> to tensor<128xi64> loc(#loc249)
      %pos_293 = arith.extsi %off_n : tensor<128xi32> to tensor<128xi64> loc(#loc249)
      %pos_294 = arith.addi %pos_292, %pos_293 : tensor<128xi64> loc(#loc249)
      %pos_295 = arith.constant 2147483647 : i64 loc(#loc249)
      %pos_296 = arith.constant -2147483648 : i64 loc(#loc249)
      %pos_297 = arith.constant dense<2147483647> : tensor<128xi64> loc(#loc249)
      %pos_298 = arith.cmpi sle, %pos_294, %pos_297 : tensor<128xi64> loc(#loc249)
      %pos_299 = arith.constant dense<-2147483648> : tensor<128xi64> loc(#loc249)
      %pos_300 = arith.cmpi sge, %pos_294, %pos_299 : tensor<128xi64> loc(#loc249)
      %pos_301 = arith.andi %pos_298, %pos_300 : tensor<128xi1> loc(#loc249)
      %pos_302 = arith.addi %pos, %off_n : tensor<128xi32> loc(#loc249)
      %pos_mask = tt.splat %kv_len_100 : i32 -> tensor<128xi32> loc(#loc250)
      %pos_mask_303 = arith.cmpi slt, %pos_302, %pos_mask : tensor<128xi32> loc(#loc250)
      %k = tt.expand_dims %d_mask_144 {axis = 1 : i32} : tensor<128xi1> -> tensor<128x1xi1> loc(#loc251)
      %k_304 = tt.expand_dims %pos_mask_303 {axis = 0 : i32} : tensor<128xi1> -> tensor<1x128xi1> loc(#loc252)
      %k_305 = tt.broadcast %k : tensor<128x1xi1> -> tensor<128x128xi1> loc(#loc253)
      %k_306 = tt.broadcast %k_304 : tensor<1x128xi1> -> tensor<128x128xi1> loc(#loc253)
      %k_307 = arith.andi %k_305, %k_306 : tensor<128x128xi1> loc(#loc253)
      %k_308 = arith.extsi %stride_kv_blk : i32 to i64 loc(#loc254)
      %k_309 = arith.muli %page_291, %k_308 : i64 loc(#loc254)
      %k_310 = tt.addptr %kv_cache_ptr, %k_309 : !tt.ptr<bf16>, i64 loc(#loc255)
      %k_311 = arith.constant 0 : i32 loc(#loc256)
      %k_312 = arith.constant 0 : i32 loc(#loc256)
      %k_313 = arith.extsi %k_312 : i32 to i64 loc(#loc256)
      %k_314 = arith.extsi %stride_kv_kv : i32 to i64 loc(#loc256)
      %k_315 = arith.muli %k_313, %k_314 : i64 loc(#loc256)
      %k_316 = arith.constant 2147483647 : i64 loc(#loc256)
      %k_317 = arith.constant -2147483648 : i64 loc(#loc256)
      %k_318 = arith.cmpi sle, %k_315, %k_316 : i64 loc(#loc256)
      %k_319 = arith.cmpi sge, %k_315, %k_317 : i64 loc(#loc256)
      %k_320 = arith.andi %k_318, %k_319 : i1 loc(#loc256)
      %k_321 = arith.muli %k_312, %stride_kv_kv : i32 loc(#loc256)
      %k_322 = tt.addptr %k_310, %k_321 : !tt.ptr<bf16>, i32 loc(#loc257)
      %k_323 = tt.expand_dims %off_n {axis = 0 : i32} : tensor<128xi32> -> tensor<1x128xi32> loc(#loc258)
      %k_324 = tt.splat %stride_kv_pos : i32 -> tensor<1x128xi32> loc(#loc259)
      %k_325 = arith.extsi %k_323 : tensor<1x128xi32> to tensor<1x128xi64> loc(#loc259)
      %k_326 = arith.extsi %k_324 : tensor<1x128xi32> to tensor<1x128xi64> loc(#loc259)
      %k_327 = arith.muli %k_325, %k_326 : tensor<1x128xi64> loc(#loc259)
      %k_328 = arith.constant 2147483647 : i64 loc(#loc259)
      %k_329 = arith.constant -2147483648 : i64 loc(#loc259)
      %k_330 = arith.constant dense<2147483647> : tensor<1x128xi64> loc(#loc259)
      %k_331 = arith.cmpi sle, %k_327, %k_330 : tensor<1x128xi64> loc(#loc259)
      %k_332 = arith.constant dense<-2147483648> : tensor<1x128xi64> loc(#loc259)
      %k_333 = arith.cmpi sge, %k_327, %k_332 : tensor<1x128xi64> loc(#loc259)
      %k_334 = arith.andi %k_331, %k_333 : tensor<1x128xi1> loc(#loc259)
      %k_335 = arith.muli %k_323, %k_324 : tensor<1x128xi32> loc(#loc259)
      %k_336 = tt.splat %k_322 : !tt.ptr<bf16> -> tensor<1x128x!tt.ptr<bf16>> loc(#loc260)
      %k_337 = tt.addptr %k_336, %k_335 : tensor<1x128x!tt.ptr<bf16>>, tensor<1x128xi32> loc(#loc260)
      %k_338 = arith.extsi %1 : i32 to i64 loc(#loc261)
      %k_339 = arith.extsi %stride_kv_h : i32 to i64 loc(#loc261)
      %k_340 = arith.muli %k_338, %k_339 : i64 loc(#loc261)
      %k_341 = arith.constant 2147483647 : i64 loc(#loc261)
      %k_342 = arith.constant -2147483648 : i64 loc(#loc261)
      %k_343 = arith.cmpi sle, %k_340, %k_341 : i64 loc(#loc261)
      %k_344 = arith.cmpi sge, %k_340, %k_342 : i64 loc(#loc261)
      %k_345 = arith.andi %k_343, %k_344 : i1 loc(#loc261)
      %k_346 = arith.muli %1, %stride_kv_h : i32 loc(#loc261)
      %k_347 = tt.splat %k_346 : i32 -> tensor<1x128xi32> loc(#loc262)
      %k_348 = tt.addptr %k_337, %k_347 : tensor<1x128x!tt.ptr<bf16>>, tensor<1x128xi32> loc(#loc262)
      %k_349 = tt.expand_dims %off_d {axis = 1 : i32} : tensor<128xi32> -> tensor<128x1xi32> loc(#loc263)
      %k_350 = arith.constant 1 : i32 loc(#loc264)
      %k_351 = arith.constant 1 : i32 loc(#loc264)
      %k_352 = arith.constant dense<1> : tensor<128x1xi32> loc(#loc264)
      %k_353 = arith.extsi %k_349 : tensor<128x1xi32> to tensor<128x1xi64> loc(#loc264)
      %k_354 = arith.extsi %k_352 : tensor<128x1xi32> to tensor<128x1xi64> loc(#loc264)
      %k_355 = arith.muli %k_353, %k_354 : tensor<128x1xi64> loc(#loc264)
      %k_356 = arith.constant 2147483647 : i64 loc(#loc264)
      %k_357 = arith.constant -2147483648 : i64 loc(#loc264)
      %k_358 = arith.constant dense<2147483647> : tensor<128x1xi64> loc(#loc264)
      %k_359 = arith.cmpi sle, %k_355, %k_358 : tensor<128x1xi64> loc(#loc264)
      %k_360 = arith.constant dense<-2147483648> : tensor<128x1xi64> loc(#loc264)
      %k_361 = arith.cmpi sge, %k_355, %k_360 : tensor<128x1xi64> loc(#loc264)
      %k_362 = arith.andi %k_359, %k_361 : tensor<128x1xi1> loc(#loc264)
      %k_363 = arith.muli %k_349, %k_352 : tensor<128x1xi32> loc(#loc264)
      %k_364 = tt.broadcast %k_348 : tensor<1x128x!tt.ptr<bf16>> -> tensor<128x128x!tt.ptr<bf16>> loc(#loc265)
      %k_365 = tt.broadcast %k_363 : tensor<128x1xi32> -> tensor<128x128xi32> loc(#loc265)
      %k_366 = tt.addptr %k_364, %k_365 : tensor<128x128x!tt.ptr<bf16>>, tensor<128x128xi32> loc(#loc265)
      %k_367 = arith.constant 0.000000e+00 : f32 loc(#loc266)
      %k_368 = arith.constant dense<0.000000e+00> : tensor<128x128xf32> loc(#loc266)
      %k_369 = arith.truncf %k_368 : tensor<128x128xf32> to tensor<128x128xbf16> loc(#loc266)
      %k_370 = tt.load %k_366, %k_307, %k_369 : tensor<128x128x!tt.ptr<bf16>> loc(#loc266)
      %qk = tt.call @"triton.language.standard.zeros____(0, 0)cconstexpr_16__(0, 1)cconstexpr_128__(1,)cconstexpr_fp32_"() : () -> tensor<16x128xf32> loc(#loc267)
      %qk_371 = tt.expand_dims %pos_mask_303 {axis = 0 : i32} : tensor<128xi1> -> tensor<1x128xi1> loc(#loc268)
      %qk_372 = arith.constant 0 : i32 loc(#loc269)
      %qk_373 = arith.constant 0xFF800000 : f32 loc(#loc269)
      %qk_374 = arith.constant 0.000000e+00 : f32 loc(#loc269)
      %qk_375 = arith.constant 0xFF800000 : f32 loc(#loc269)
      %qk_376 = arith.constant dense<0.000000e+00> : tensor<1x128xf32> loc(#loc269)
      %qk_377 = arith.constant dense<0xFF800000> : tensor<1x128xf32> loc(#loc269)
      %qk_378 = arith.select %qk_371, %qk_376, %qk_377 : tensor<1x128xi1>, tensor<1x128xf32> loc(#loc269)
      %qk_379 = tt.broadcast %qk_378 : tensor<1x128xf32> -> tensor<16x128xf32> loc(#loc270)
      %qk_380 = arith.addf %qk, %qk_379 : tensor<16x128xf32> loc(#loc270)
      %qk_381 = arith.constant 0.000000e+00 : f32 loc(#loc271)
      %qk_382 = arith.constant dense<0.000000e+00> : tensor<16x128xf32> loc(#loc271)
      %qk_383 = tt.dot %q, %k_370, %qk_382, inputPrecision = tf32 : tensor<16x128xbf16> * tensor<128x128xbf16> -> tensor<16x128xf32> loc(#loc271)
      %qk_384 = tt.splat %sm_scale_log2e_1 : f32 -> tensor<16x128xf32> loc(#loc272)
      %qk_385 = arith.mulf %qk_383, %qk_384 : tensor<16x128xf32> loc(#loc272)
      %qk_386 = arith.addf %qk_380, %qk_385 : tensor<16x128xf32> loc(#loc273)
      %m_ij = tt.call @"triton.language.standard.max__fp32S16_128S__(1,)cconstexpr_1__(2,)cconstexpr_False__(3,)cconstexpr_True__(4,)cconstexpr_False_"(%qk_386) : (tensor<16x128xf32>) -> tensor<16xf32> loc(#loc274)
      %m_ij_387 = arith.maxnumf %m_i_274, %m_ij : tensor<16xf32> loc(#loc275)
      %p = tt.expand_dims %m_ij_387 {axis = 1 : i32} : tensor<16xf32> -> tensor<16x1xf32> loc(#loc276)
      %p_388 = tt.broadcast %p : tensor<16x1xf32> -> tensor<16x128xf32> loc(#loc277)
      %p_389 = arith.subf %qk_386, %p_388 : tensor<16x128xf32> loc(#loc277)
      %p_390 = math.exp2 %p_389 : tensor<16x128xf32> loc(#loc278)
      %l_ij = tt.call @"triton.language.standard.sum__fp32S16_128S__(1,)cconstexpr_1__(2,)cconstexpr_False__(3,)cNone"(%p_390) : (tensor<16x128xf32>) -> tensor<16xf32> loc(#loc279)
      %acc_o_391 = arith.subf %m_i_274, %m_ij_387 : tensor<16xf32> loc(#loc280)
      %acc_o_392 = math.exp2 %acc_o_391 : tensor<16xf32> loc(#loc281)
      %acc_o_393 = tt.expand_dims %acc_o_392 {axis = 1 : i32} : tensor<16xf32> -> tensor<16x1xf32> loc(#loc282)
      %acc_o_394 = tt.broadcast %acc_o_393 : tensor<16x1xf32> -> tensor<16x128xf32> loc(#loc283)
      %acc_o_395 = arith.mulf %acc_o_276, %acc_o_394 : tensor<16x128xf32> loc(#loc283)
      %v = tt.expand_dims %pos_mask_303 {axis = 1 : i32} : tensor<128xi1> -> tensor<128x1xi1> loc(#loc284)
      %v_396 = tt.expand_dims %d_mask_144 {axis = 0 : i32} : tensor<128xi1> -> tensor<1x128xi1> loc(#loc285)
      %v_397 = tt.broadcast %v : tensor<128x1xi1> -> tensor<128x128xi1> loc(#loc286)
      %v_398 = tt.broadcast %v_396 : tensor<1x128xi1> -> tensor<128x128xi1> loc(#loc286)
      %v_399 = arith.andi %v_397, %v_398 : tensor<128x128xi1> loc(#loc286)
      %v_400 = arith.extsi %stride_kv_blk : i32 to i64 loc(#loc287)
      %v_401 = arith.muli %page_291, %v_400 : i64 loc(#loc287)
      %v_402 = tt.addptr %kv_cache_ptr, %v_401 : !tt.ptr<bf16>, i64 loc(#loc288)
      %v_403 = arith.constant 1 : i32 loc(#loc289)
      %v_404 = arith.constant 1 : i32 loc(#loc289)
      %v_405 = arith.extsi %v_404 : i32 to i64 loc(#loc289)
      %v_406 = arith.extsi %stride_kv_kv : i32 to i64 loc(#loc289)
      %v_407 = arith.muli %v_405, %v_406 : i64 loc(#loc289)
      %v_408 = arith.constant 2147483647 : i64 loc(#loc289)
      %v_409 = arith.constant -2147483648 : i64 loc(#loc289)
      %v_410 = arith.cmpi sle, %v_407, %v_408 : i64 loc(#loc289)
      %v_411 = arith.cmpi sge, %v_407, %v_409 : i64 loc(#loc289)
      %v_412 = arith.andi %v_410, %v_411 : i1 loc(#loc289)
      %v_413 = arith.muli %v_404, %stride_kv_kv : i32 loc(#loc289)
      %v_414 = tt.addptr %v_402, %v_413 : !tt.ptr<bf16>, i32 loc(#loc290)
      %v_415 = tt.expand_dims %off_n {axis = 1 : i32} : tensor<128xi32> -> tensor<128x1xi32> loc(#loc291)
      %v_416 = tt.splat %stride_kv_pos : i32 -> tensor<128x1xi32> loc(#loc292)
      %v_417 = arith.extsi %v_415 : tensor<128x1xi32> to tensor<128x1xi64> loc(#loc292)
      %v_418 = arith.extsi %v_416 : tensor<128x1xi32> to tensor<128x1xi64> loc(#loc292)
      %v_419 = arith.muli %v_417, %v_418 : tensor<128x1xi64> loc(#loc292)
      %v_420 = arith.constant 2147483647 : i64 loc(#loc292)
      %v_421 = arith.constant -2147483648 : i64 loc(#loc292)
      %v_422 = arith.constant dense<2147483647> : tensor<128x1xi64> loc(#loc292)
      %v_423 = arith.cmpi sle, %v_419, %v_422 : tensor<128x1xi64> loc(#loc292)
      %v_424 = arith.constant dense<-2147483648> : tensor<128x1xi64> loc(#loc292)
      %v_425 = arith.cmpi sge, %v_419, %v_424 : tensor<128x1xi64> loc(#loc292)
      %v_426 = arith.andi %v_423, %v_425 : tensor<128x1xi1> loc(#loc292)
      %v_427 = arith.muli %v_415, %v_416 : tensor<128x1xi32> loc(#loc292)
      %v_428 = tt.splat %v_414 : !tt.ptr<bf16> -> tensor<128x1x!tt.ptr<bf16>> loc(#loc293)
      %v_429 = tt.addptr %v_428, %v_427 : tensor<128x1x!tt.ptr<bf16>>, tensor<128x1xi32> loc(#loc293)
      %v_430 = arith.extsi %1 : i32 to i64 loc(#loc294)
      %v_431 = arith.extsi %stride_kv_h : i32 to i64 loc(#loc294)
      %v_432 = arith.muli %v_430, %v_431 : i64 loc(#loc294)
      %v_433 = arith.constant 2147483647 : i64 loc(#loc294)
      %v_434 = arith.constant -2147483648 : i64 loc(#loc294)
      %v_435 = arith.cmpi sle, %v_432, %v_433 : i64 loc(#loc294)
      %v_436 = arith.cmpi sge, %v_432, %v_434 : i64 loc(#loc294)
      %v_437 = arith.andi %v_435, %v_436 : i1 loc(#loc294)
      %v_438 = arith.muli %1, %stride_kv_h : i32 loc(#loc294)
      %v_439 = tt.splat %v_438 : i32 -> tensor<128x1xi32> loc(#loc295)
      %v_440 = tt.addptr %v_429, %v_439 : tensor<128x1x!tt.ptr<bf16>>, tensor<128x1xi32> loc(#loc295)
      %v_441 = tt.expand_dims %off_d {axis = 0 : i32} : tensor<128xi32> -> tensor<1x128xi32> loc(#loc296)
      %v_442 = arith.constant 1 : i32 loc(#loc297)
      %v_443 = arith.constant 1 : i32 loc(#loc297)
      %v_444 = arith.constant dense<1> : tensor<1x128xi32> loc(#loc297)
      %v_445 = arith.extsi %v_441 : tensor<1x128xi32> to tensor<1x128xi64> loc(#loc297)
      %v_446 = arith.extsi %v_444 : tensor<1x128xi32> to tensor<1x128xi64> loc(#loc297)
      %v_447 = arith.muli %v_445, %v_446 : tensor<1x128xi64> loc(#loc297)
      %v_448 = arith.constant 2147483647 : i64 loc(#loc297)
      %v_449 = arith.constant -2147483648 : i64 loc(#loc297)
      %v_450 = arith.constant dense<2147483647> : tensor<1x128xi64> loc(#loc297)
      %v_451 = arith.cmpi sle, %v_447, %v_450 : tensor<1x128xi64> loc(#loc297)
      %v_452 = arith.constant dense<-2147483648> : tensor<1x128xi64> loc(#loc297)
      %v_453 = arith.cmpi sge, %v_447, %v_452 : tensor<1x128xi64> loc(#loc297)
      %v_454 = arith.andi %v_451, %v_453 : tensor<1x128xi1> loc(#loc297)
      %v_455 = arith.muli %v_441, %v_444 : tensor<1x128xi32> loc(#loc297)
      %v_456 = tt.broadcast %v_440 : tensor<128x1x!tt.ptr<bf16>> -> tensor<128x128x!tt.ptr<bf16>> loc(#loc298)
      %v_457 = tt.broadcast %v_455 : tensor<1x128xi32> -> tensor<128x128xi32> loc(#loc298)
      %v_458 = tt.addptr %v_456, %v_457 : tensor<128x128x!tt.ptr<bf16>>, tensor<128x128xi32> loc(#loc298)
      %v_459 = arith.constant 0.000000e+00 : f32 loc(#loc299)
      %v_460 = arith.constant dense<0.000000e+00> : tensor<128x128xf32> loc(#loc299)
      %v_461 = arith.truncf %v_460 : tensor<128x128xf32> to tensor<128x128xbf16> loc(#loc299)
      %v_462 = tt.load %v_458, %v_399, %v_461 : tensor<128x128x!tt.ptr<bf16>> loc(#loc299)
      %acc_o_463 = arith.truncf %p_390 : tensor<16x128xf32> to tensor<16x128xbf16> loc(#loc300)
      %acc_o_464 = arith.constant 0.000000e+00 : f32 loc(#loc301)
      %acc_o_465 = arith.constant dense<0.000000e+00> : tensor<16x128xf32> loc(#loc301)
      %acc_o_466 = tt.dot %acc_o_463, %v_462, %acc_o_465, inputPrecision = tf32 : tensor<16x128xbf16> * tensor<128x128xbf16> -> tensor<16x128xf32> loc(#loc301)
      %acc_o_467 = arith.addf %acc_o_395, %acc_o_466 : tensor<16x128xf32> loc(#loc302)
      %lse_i_468 = arith.subf %lse_i_275, %m_ij_387 : tensor<16xf32> loc(#loc303)
      %lse_i_469 = math.exp2 %lse_i_468 : tensor<16xf32> loc(#loc304)
      %lse_i_470 = arith.addf %lse_i_469, %l_ij : tensor<16xf32> loc(#loc305)
      %lse_i_471 = math.log2 %lse_i_470 : tensor<16xf32> loc(#loc306)
      %lse_i_472 = arith.addf %m_ij_387, %lse_i_471 : tensor<16xf32> loc(#loc307)
      scf.yield %m_ij_387, %lse_i_472, %acc_o_467, %cur_idx_ptr_279 : tensor<16xf32>, tensor<16xf32>, tensor<16x128xf32>, !tt.ptr<i32> loc(#loc117)
    } loc(#loc338)
    %7 = tt.elementwise_inline_asm "griddepcontrol.launch_dependents; // dummy $0" {constraints = "=r", packed_element = 1 : i32, pure = false} -> i32 loc(#loc118)
    %scale = arith.constant 0xFF800000 : f32 loc(#loc308)
    %scale_194 = arith.constant dense<0xFF800000> : tensor<16xf32> loc(#loc308)
    %scale_195 = arith.cmpf ogt, %cur_idx_ptr_193#1, %scale_194 : tensor<16xf32> loc(#loc308)
    %scale_196 = arith.subf %cur_idx_ptr_193#0, %cur_idx_ptr_193#1 : tensor<16xf32> loc(#loc309)
    %scale_197 = math.exp2 %scale_196 : tensor<16xf32> loc(#loc310)
    %scale_198 = tt.call @triton.language.standard.zeros_like__fp32S16S__(%cur_idx_ptr_193#1) : (tensor<16xf32>) -> tensor<16xf32> loc(#loc311)
    %scale_199 = arith.select %scale_195, %scale_197, %scale_198 : tensor<16xi1>, tensor<16xf32> loc(#loc312)
    %acc_o_200 = tt.expand_dims %scale_199 {axis = 1 : i32} : tensor<16xf32> -> tensor<16x1xf32> loc(#loc313)
    %acc_o_201 = tt.broadcast %acc_o_200 : tensor<16x1xf32> -> tensor<16x128xf32> loc(#loc314)
    %acc_o_202 = arith.mulf %cur_idx_ptr_193#2, %acc_o_201 : tensor<16x128xf32> loc(#loc314)
    %o_ptrs = arith.extsi %pid_c_5 : i32 to i64 loc(#loc315)
    %o_ptrs_203 = arith.extsi %stride_o_c : i32 to i64 loc(#loc315)
    %o_ptrs_204 = arith.muli %o_ptrs, %o_ptrs_203 : i64 loc(#loc315)
    %o_ptrs_205 = arith.constant 2147483647 : i64 loc(#loc315)
    %o_ptrs_206 = arith.constant -2147483648 : i64 loc(#loc315)
    %o_ptrs_207 = arith.cmpi sle, %o_ptrs_204, %o_ptrs_205 : i64 loc(#loc315)
    %o_ptrs_208 = arith.cmpi sge, %o_ptrs_204, %o_ptrs_206 : i64 loc(#loc315)
    %o_ptrs_209 = arith.andi %o_ptrs_207, %o_ptrs_208 : i1 loc(#loc315)
    %o_ptrs_210 = arith.muli %pid_c_5, %stride_o_c : i32 loc(#loc315)
    %o_ptrs_211 = tt.addptr %o_ptr, %o_ptrs_210 : !tt.ptr<bf16>, i32 loc(#loc316)
    %o_ptrs_212 = arith.extsi %pid_b_3 : i32 to i64 loc(#loc317)
    %o_ptrs_213 = arith.extsi %stride_o_b : i32 to i64 loc(#loc317)
    %o_ptrs_214 = arith.muli %o_ptrs_212, %o_ptrs_213 : i64 loc(#loc317)
    %o_ptrs_215 = arith.constant 2147483647 : i64 loc(#loc317)
    %o_ptrs_216 = arith.constant -2147483648 : i64 loc(#loc317)
    %o_ptrs_217 = arith.cmpi sle, %o_ptrs_214, %o_ptrs_215 : i64 loc(#loc317)
    %o_ptrs_218 = arith.cmpi sge, %o_ptrs_214, %o_ptrs_216 : i64 loc(#loc317)
    %o_ptrs_219 = arith.andi %o_ptrs_217, %o_ptrs_218 : i1 loc(#loc317)
    %o_ptrs_220 = arith.muli %pid_b_3, %stride_o_b : i32 loc(#loc317)
    %o_ptrs_221 = tt.addptr %o_ptrs_211, %o_ptrs_220 : !tt.ptr<bf16>, i32 loc(#loc318)
    %o_ptrs_222 = arith.extsi %pid_h_30 : i32 to i64 loc(#loc319)
    %o_ptrs_223 = arith.extsi %stride_o_h : i32 to i64 loc(#loc319)
    %o_ptrs_224 = arith.muli %o_ptrs_222, %o_ptrs_223 : i64 loc(#loc319)
    %o_ptrs_225 = arith.constant 2147483647 : i64 loc(#loc319)
    %o_ptrs_226 = arith.constant -2147483648 : i64 loc(#loc319)
    %o_ptrs_227 = arith.cmpi sle, %o_ptrs_224, %o_ptrs_225 : i64 loc(#loc319)
    %o_ptrs_228 = arith.cmpi sge, %o_ptrs_224, %o_ptrs_226 : i64 loc(#loc319)
    %o_ptrs_229 = arith.andi %o_ptrs_227, %o_ptrs_228 : i1 loc(#loc319)
    %o_ptrs_230 = arith.muli %pid_h_30, %stride_o_h : i32 loc(#loc319)
    %o_ptrs_231 = tt.addptr %o_ptrs_221, %o_ptrs_230 : !tt.ptr<bf16>, i32 loc(#loc320)
    %o_ptrs_232 = arith.extsi %gqa_group_size : i32 to i64 loc(#loc321)
    %o_ptrs_233 = arith.extsi %head_dim : i32 to i64 loc(#loc321)
    %o_ptrs_234 = arith.extsi %stride_o_h : i32 to i64 loc(#loc321)
    %o_ptrs_235 = arith.constant 1 : i64 loc(#loc321)
    %o_ptrs_236 = arith.constant 0 : i32 loc(#loc321)
    %o_ptrs_237 = arith.constant 0 : i32 loc(#loc321)
    %o_ptrs_238 = tt.make_tensor_ptr %o_ptrs_231, [%o_ptrs_232, %o_ptrs_233], [%o_ptrs_234, %o_ptrs_235], [%o_ptrs_236, %o_ptrs_237] {order = array<i32: 1, 0>} : <tensor<16x128xbf16>> loc(#loc321)
    %8 = arith.truncf %acc_o_202 : tensor<16x128xf32> to tensor<16x128xbf16> loc(#loc133)
    tt.store %o_ptrs_238, %8 {boundaryCheck = array<i32: 0, 1>} : !tt.ptr<tensor<16x128xbf16>> loc(#loc134)
    %lse_ptrs = arith.extsi %pid_c_5 : i32 to i64 loc(#loc322)
    %lse_ptrs_239 = arith.extsi %stride_l_c : i32 to i64 loc(#loc322)
    %lse_ptrs_240 = arith.muli %lse_ptrs, %lse_ptrs_239 : i64 loc(#loc322)
    %lse_ptrs_241 = arith.constant 2147483647 : i64 loc(#loc322)
    %lse_ptrs_242 = arith.constant -2147483648 : i64 loc(#loc322)
    %lse_ptrs_243 = arith.cmpi sle, %lse_ptrs_240, %lse_ptrs_241 : i64 loc(#loc322)
    %lse_ptrs_244 = arith.cmpi sge, %lse_ptrs_240, %lse_ptrs_242 : i64 loc(#loc322)
    %lse_ptrs_245 = arith.andi %lse_ptrs_243, %lse_ptrs_244 : i1 loc(#loc322)
    %lse_ptrs_246 = arith.muli %pid_c_5, %stride_l_c : i32 loc(#loc322)
    %lse_ptrs_247 = tt.addptr %lse_ptr, %lse_ptrs_246 : !tt.ptr<f32>, i32 loc(#loc323)
    %lse_ptrs_248 = arith.extsi %pid_b_3 : i32 to i64 loc(#loc324)
    %lse_ptrs_249 = arith.extsi %stride_l_b : i32 to i64 loc(#loc324)
    %lse_ptrs_250 = arith.muli %lse_ptrs_248, %lse_ptrs_249 : i64 loc(#loc324)
    %lse_ptrs_251 = arith.constant 2147483647 : i64 loc(#loc324)
    %lse_ptrs_252 = arith.constant -2147483648 : i64 loc(#loc324)
    %lse_ptrs_253 = arith.cmpi sle, %lse_ptrs_250, %lse_ptrs_251 : i64 loc(#loc324)
    %lse_ptrs_254 = arith.cmpi sge, %lse_ptrs_250, %lse_ptrs_252 : i64 loc(#loc324)
    %lse_ptrs_255 = arith.andi %lse_ptrs_253, %lse_ptrs_254 : i1 loc(#loc324)
    %lse_ptrs_256 = arith.muli %pid_b_3, %stride_l_b : i32 loc(#loc324)
    %lse_ptrs_257 = tt.addptr %lse_ptrs_247, %lse_ptrs_256 : !tt.ptr<f32>, i32 loc(#loc325)
    %lse_ptrs_258 = arith.constant 1 : i32 loc(#loc326)
    %lse_ptrs_259 = arith.constant 1 : i32 loc(#loc326)
    %lse_ptrs_260 = arith.extsi %pid_h_30 : i32 to i64 loc(#loc326)
    %lse_ptrs_261 = arith.extsi %lse_ptrs_259 : i32 to i64 loc(#loc326)
    %lse_ptrs_262 = arith.muli %lse_ptrs_260, %lse_ptrs_261 : i64 loc(#loc326)
    %lse_ptrs_263 = arith.constant 2147483647 : i64 loc(#loc326)
    %lse_ptrs_264 = arith.constant -2147483648 : i64 loc(#loc326)
    %lse_ptrs_265 = arith.cmpi sle, %lse_ptrs_262, %lse_ptrs_263 : i64 loc(#loc326)
    %lse_ptrs_266 = arith.cmpi sge, %lse_ptrs_262, %lse_ptrs_264 : i64 loc(#loc326)
    %lse_ptrs_267 = arith.andi %lse_ptrs_265, %lse_ptrs_266 : i1 loc(#loc326)
    %lse_ptrs_268 = arith.muli %pid_h_30, %lse_ptrs_259 : i32 loc(#loc326)
    %lse_ptrs_269 = tt.addptr %lse_ptrs_257, %lse_ptrs_268 : !tt.ptr<f32>, i32 loc(#loc327)
    %lse_ptrs_270 = arith.extsi %gqa_group_size : i32 to i64 loc(#loc328)
    %lse_ptrs_271 = arith.constant 1 : i64 loc(#loc328)
    %lse_ptrs_272 = arith.constant 0 : i32 loc(#loc328)
    %lse_ptrs_273 = tt.make_tensor_ptr %lse_ptrs_269, [%lse_ptrs_270], [%lse_ptrs_271], [%lse_ptrs_272] {order = array<i32: 0>} : <tensor<16xf32>> loc(#loc328)
    tt.store %lse_ptrs_273, %cur_idx_ptr_193#1 {boundaryCheck = array<i32: 0>} : !tt.ptr<tensor<16xf32>> loc(#loc142)
    tt.return loc(#loc143)
  } loc(#loc)
  tt.func private @"triton.language.standard.sum__i32S16S__(1,)cconstexpr_0__(2,)cconstexpr_False__(3,)cNone"(%input: tensor<16xi32> loc("input"(#loc144))) -> i32 attributes {noinline = false} {
    %0 = "tt.reduce"(%input) <{axis = 0 : i32}> ({
    ^bb0(%arg1: i32 loc(unknown), %arg2: i32 loc(unknown)):
      %2 = tt.call @triton.language.standard._sum_combine__i32_i32__(%arg1, %arg2) : (i32, i32) -> i32 loc(#loc145)
      tt.reduce.return %2 : i32 loc(#loc145)
    }) : (tensor<16xi32>) -> i32 loc(#loc145)
    tt.return %0 : i32 loc(#loc147)
  ^bb1:  // no predecessors
    %1 = ub.poison : i32 loc(#loc148)
    tt.return %1 : i32 loc(#loc148)
  } loc(#loc144)
  tt.func private @triton.language.standard._sum_combine__i32_i32__(%a: i32 loc("a"(#loc149)), %b: i32 loc("b"(#loc149))) -> i32 attributes {noinline = false} {
    %0 = arith.extsi %a : i32 to i64 loc(#loc150)
    %1 = arith.extsi %b : i32 to i64 loc(#loc150)
    %2 = arith.addi %0, %1 : i64 loc(#loc150)
    %c2147483647_i64 = arith.constant 2147483647 : i64 loc(#loc150)
    %c-2147483648_i64 = arith.constant -2147483648 : i64 loc(#loc150)
    %3 = arith.cmpi sle, %2, %c2147483647_i64 : i64 loc(#loc150)
    %4 = arith.cmpi sge, %2, %c-2147483648_i64 : i64 loc(#loc150)
    %5 = arith.andi %3, %4 : i1 loc(#loc150)
    %6 = arith.addi %a, %b : i32 loc(#loc150)
    tt.return %6 : i32 loc(#loc151)
  ^bb1:  // no predecessors
    %7 = ub.poison : i32 loc(#loc152)
    tt.return %7 : i32 loc(#loc152)
  } loc(#loc149)
  tt.func private @"triton.language.standard.zeros____(0, 0)cconstexpr_16__(0, 1)cconstexpr_128__(1,)cconstexpr_fp32_"() -> tensor<16x128xf32> attributes {noinline = false} {
    %cst = arith.constant 0.000000e+00 : f32 loc(#loc154)
    %cst_0 = arith.constant dense<0.000000e+00> : tensor<16x128xf32> loc(#loc154)
    tt.return %cst_0 : tensor<16x128xf32> loc(#loc155)
  ^bb1:  // no predecessors
    %0 = ub.poison : tensor<16x128xf32> loc(#loc156)
    tt.return %0 : tensor<16x128xf32> loc(#loc156)
  } loc(#loc153)
  tt.func private @"triton.language.standard.max__fp32S16_128S__(1,)cconstexpr_1__(2,)cconstexpr_False__(3,)cconstexpr_True__(4,)cconstexpr_False_"(%input: tensor<16x128xf32> loc("input"(#loc157))) -> tensor<16xf32> attributes {noinline = false} {
    %0 = "tt.reduce"(%input) <{axis = 1 : i32}> ({
    ^bb0(%arg1: f32 loc(unknown), %arg2: f32 loc(unknown)):
      %2 = tt.call @triton.language.standard._elementwise_max__fp32_fp32__(%arg1, %arg2) : (f32, f32) -> f32 loc(#loc158)
      tt.reduce.return %2 : f32 loc(#loc158)
    }) : (tensor<16x128xf32>) -> tensor<16xf32> loc(#loc158)
    tt.return %0 : tensor<16xf32> loc(#loc159)
  ^bb1:  // no predecessors
    %1 = ub.poison : tensor<16xf32> loc(#loc160)
    tt.return %1 : tensor<16xf32> loc(#loc160)
  } loc(#loc157)
  tt.func private @triton.language.standard._elementwise_max__fp32_fp32__(%a: f32 loc("a"(#loc161)), %b: f32 loc("b"(#loc161))) -> f32 attributes {noinline = false} {
    %0 = arith.maxnumf %a, %b : f32 loc(#loc162)
    tt.return %0 : f32 loc(#loc163)
  ^bb1:  // no predecessors
    %1 = ub.poison : f32 loc(#loc164)
    tt.return %1 : f32 loc(#loc164)
  } loc(#loc161)
  tt.func private @"triton.language.standard.sum__fp32S16_128S__(1,)cconstexpr_1__(2,)cconstexpr_False__(3,)cNone"(%input: tensor<16x128xf32> loc("input"(#loc144))) -> tensor<16xf32> attributes {noinline = false} {
    %0 = "tt.reduce"(%input) <{axis = 1 : i32}> ({
    ^bb0(%arg1: f32 loc(unknown), %arg2: f32 loc(unknown)):
      %2 = tt.call @triton.language.standard._sum_combine__fp32_fp32__(%arg1, %arg2) : (f32, f32) -> f32 loc(#loc145)
      tt.reduce.return %2 : f32 loc(#loc145)
    }) : (tensor<16x128xf32>) -> tensor<16xf32> loc(#loc145)
    tt.return %0 : tensor<16xf32> loc(#loc147)
  ^bb1:  // no predecessors
    %1 = ub.poison : tensor<16xf32> loc(#loc148)
    tt.return %1 : tensor<16xf32> loc(#loc148)
  } loc(#loc144)
  tt.func private @triton.language.standard._sum_combine__fp32_fp32__(%a: f32 loc("a"(#loc149)), %b: f32 loc("b"(#loc149))) -> f32 attributes {noinline = false} {
    %0 = arith.addf %a, %b : f32 loc(#loc150)
    tt.return %0 : f32 loc(#loc151)
  ^bb1:  // no predecessors
    %1 = ub.poison : f32 loc(#loc152)
    tt.return %1 : f32 loc(#loc152)
  } loc(#loc149)
  tt.func private @triton.language.standard.zeros_like__fp32S16S__(%input: tensor<16xf32> loc("input"(#loc165))) -> tensor<16xf32> attributes {noinline = false} {
    %0 = tt.call @"triton.language.standard.zeros____(0, 0)cconstexpr_16__(1,)cconstexpr_fp32_"() : () -> tensor<16xf32> loc(#loc166)
    tt.return %0 : tensor<16xf32> loc(#loc167)
  ^bb1:  // no predecessors
    %1 = ub.poison : tensor<16xf32> loc(#loc168)
    tt.return %1 : tensor<16xf32> loc(#loc168)
  } loc(#loc165)
  tt.func private @"triton.language.standard.zeros____(0, 0)cconstexpr_16__(1,)cconstexpr_fp32_"() -> tensor<16xf32> attributes {noinline = false} {
    %cst = arith.constant 0.000000e+00 : f32 loc(#loc154)
    %cst_0 = arith.constant dense<0.000000e+00> : tensor<16xf32> loc(#loc154)
    tt.return %cst_0 : tensor<16xf32> loc(#loc155)
  ^bb1:  // no predecessors
    %0 = ub.poison : tensor<16xf32> loc(#loc156)
    tt.return %0 : tensor<16xf32> loc(#loc156)
  } loc(#loc153)
} loc(#loc)
#loc1 = loc("/usr/local/lib/python3.12/dist-packages/vllm/models/minimax_m3/common/ops/sparse_attn.py":268:32)
#loc2 = loc("/usr/local/lib/python3.12/dist-packages/vllm/models/minimax_m3/common/ops/sparse_attn.py":270:35)
#loc3 = loc("/usr/local/lib/python3.12/dist-packages/vllm/models/minimax_m3/common/ops/sparse_attn.py":270:53)
#loc4 = loc("/usr/local/lib/python3.12/dist-packages/vllm/models/minimax_m3/common/ops/sparse_attn.py":271:21)
#loc5 = loc("/usr/local/lib/python3.12/dist-packages/vllm/models/minimax_m3/common/ops/sparse_attn.py":272:22)
#loc6 = loc("/usr/local/lib/python3.12/dist-packages/vllm/models/minimax_m3/common/ops/sparse_attn.py":273:22)
#loc7 = loc("/usr/local/lib/python3.12/dist-packages/vllm/models/minimax_m3/common/ops/sparse_attn.py":274:32)
#loc8 = loc("/usr/local/lib/python3.12/dist-packages/vllm/models/minimax_m3/common/ops/sparse_attn.py":274:23)
#loc9 = loc("/usr/local/lib/python3.12/dist-packages/vllm/models/minimax_m3/common/ops/sparse_attn.py":275:21)
#loc10 = loc("/usr/local/lib/python3.12/dist-packages/vllm/models/minimax_m3/common/ops/sparse_attn.py":276:34)
#loc11 = loc("/usr/local/lib/python3.12/dist-packages/vllm/models/minimax_m3/common/ops/sparse_attn.py":276:52)
#loc12 = loc("/usr/local/lib/python3.12/dist-packages/vllm/models/minimax_m3/common/ops/sparse_attn.py":276:58)
#loc13 = loc("/usr/local/lib/python3.12/dist-packages/vllm/models/minimax_m3/common/ops/sparse_attn.py":277:31)
#loc14 = loc("/usr/local/lib/python3.12/dist-packages/vllm/models/minimax_m3/common/ops/sparse_attn.py":278:47)
#loc15 = loc("/usr/local/lib/python3.12/dist-packages/vllm/models/minimax_m3/common/ops/sparse_attn.py":281:8)
#loc16 = loc("/usr/local/lib/python3.12/dist-packages/vllm/models/minimax_m3/common/ops/sparse_attn.py":283:33)
#loc17 = loc("/usr/local/lib/python3.12/dist-packages/vllm/models/minimax_m3/common/ops/sparse_attn.py":283:22)
#loc18 = loc("/usr/local/lib/python3.12/dist-packages/vllm/models/minimax_m3/common/ops/sparse_attn.py":284:26)
#loc19 = loc("/usr/local/lib/python3.12/dist-packages/vllm/models/minimax_m3/common/ops/sparse_attn.py":284:45)
#loc20 = loc("/usr/local/lib/python3.12/dist-packages/vllm/models/minimax_m3/common/ops/sparse_attn.py":287:36)
#loc21 = loc("/usr/local/lib/python3.12/dist-packages/vllm/models/minimax_m3/common/ops/sparse_attn.py":287:39)
#loc22 = loc("/usr/local/lib/python3.12/dist-packages/vllm/models/minimax_m3/common/ops/sparse_attn.py":290:25)
#loc23 = loc("/usr/local/lib/python3.12/dist-packages/vllm/models/minimax_m3/common/ops/sparse_attn.py":291:32)
#loc24 = loc("/usr/local/lib/python3.12/dist-packages/vllm/models/minimax_m3/common/ops/sparse_attn.py":291:23)
#loc25 = loc("/usr/local/lib/python3.12/dist-packages/vllm/models/minimax_m3/common/ops/sparse_attn.py":291:52)
#loc26 = loc("/usr/local/lib/python3.12/dist-packages/vllm/models/minimax_m3/common/ops/sparse_attn.py":291:44)
#loc27 = loc("/usr/local/lib/python3.12/dist-packages/vllm/models/minimax_m3/common/ops/sparse_attn.py":292:66)
#loc28 = loc("/usr/local/lib/python3.12/dist-packages/vllm/models/minimax_m3/common/ops/sparse_attn.py":292:42)
#loc29 = loc("/usr/local/lib/python3.12/dist-packages/vllm/models/minimax_m3/common/ops/sparse_attn.py":292:34)
#loc30 = loc("/usr/local/lib/python3.12/dist-packages/vllm/models/minimax_m3/common/ops/sparse_attn.py":292:23)
#loc31 = loc("/usr/local/lib/python3.12/dist-packages/vllm/models/minimax_m3/common/ops/sparse_attn.py":293:36)
#loc32 = loc("/usr/local/lib/python3.12/dist-packages/vllm/models/minimax_m3/common/ops/sparse_attn.py":293:42)
#loc33 = loc("/usr/local/lib/python3.12/dist-packages/vllm/models/minimax_m3/common/ops/sparse_attn.py":293:23)
#loc34 = loc("/usr/local/lib/python3.12/dist-packages/vllm/models/minimax_m3/common/ops/sparse_attn.py":294:55)
#loc35 = loc("/usr/local/lib/python3.12/dist-packages/vllm/models/minimax_m3/common/ops/sparse_attn.py":296:25)
#loc36 = loc("/usr/local/lib/python3.12/dist-packages/vllm/models/minimax_m3/common/ops/sparse_attn.py":297:25)
#loc37 = loc("/usr/local/lib/python3.12/dist-packages/vllm/models/minimax_m3/common/ops/sparse_attn.py":298:21)
#loc38 = loc("/usr/local/lib/python3.12/dist-packages/vllm/models/minimax_m3/common/ops/sparse_attn.py":299:40)
#loc39 = loc("/usr/local/lib/python3.12/dist-packages/vllm/models/minimax_m3/common/ops/sparse_attn.py":299:31)
#loc40 = loc("/usr/local/lib/python3.12/dist-packages/vllm/models/minimax_m3/common/ops/sparse_attn.py":301:35)
#loc41 = loc("/usr/local/lib/python3.12/dist-packages/vllm/models/minimax_m3/common/ops/sparse_attn.py":302:37)
#loc42 = loc("/usr/local/lib/python3.12/dist-packages/vllm/models/minimax_m3/common/ops/sparse_attn.py":303:21)
#loc43 = loc("/usr/local/lib/python3.12/dist-packages/vllm/models/minimax_m3/common/ops/sparse_attn.py":305:29)
#loc44 = loc("/usr/local/lib/python3.12/dist-packages/vllm/models/minimax_m3/common/ops/sparse_attn.py":305:21)
#loc45 = loc("/usr/local/lib/python3.12/dist-packages/vllm/models/minimax_m3/common/ops/sparse_attn.py":305:49)
#loc46 = loc("/usr/local/lib/python3.12/dist-packages/vllm/models/minimax_m3/common/ops/sparse_attn.py":305:41)
#loc47 = loc("/usr/local/lib/python3.12/dist-packages/vllm/models/minimax_m3/common/ops/sparse_attn.py":310:8)
#loc48 = loc("/usr/local/lib/python3.12/dist-packages/vllm/models/minimax_m3/common/ops/sparse_attn.py":312:16)
#loc49 = loc("/usr/local/lib/python3.12/dist-packages/vllm/models/minimax_m3/common/ops/sparse_attn.py":314:48)
#loc50 = loc("/usr/local/lib/python3.12/dist-packages/vllm/models/minimax_m3/common/ops/sparse_attn.py":314:29)
#loc51 = loc("/usr/local/lib/python3.12/dist-packages/vllm/models/minimax_m3/common/ops/sparse_attn.py":315:40)
#loc52 = loc("/usr/local/lib/python3.12/dist-packages/vllm/models/minimax_m3/common/ops/sparse_attn.py":316:22)
#loc53 = loc("/usr/local/lib/python3.12/dist-packages/vllm/models/minimax_m3/common/ops/sparse_attn.py":317:36)
#loc54 = loc("/usr/local/lib/python3.12/dist-packages/vllm/models/minimax_m3/common/ops/sparse_attn.py":318:18)
#loc55 = loc("/usr/local/lib/python3.12/dist-packages/vllm/models/minimax_m3/common/ops/sparse_attn.py":319:32)
#loc56 = loc("/usr/local/lib/python3.12/dist-packages/vllm/models/minimax_m3/common/ops/sparse_attn.py":319:23)
#loc57 = loc("/usr/local/lib/python3.12/dist-packages/vllm/models/minimax_m3/common/ops/sparse_attn.py":319:40)
#loc58 = loc("/usr/local/lib/python3.12/dist-packages/vllm/models/minimax_m3/common/ops/sparse_attn.py":320:18)
#loc59 = loc("/usr/local/lib/python3.12/dist-packages/vllm/models/minimax_m3/common/ops/sparse_attn.py":321:25)
#loc60 = loc("/usr/local/lib/python3.12/dist-packages/vllm/models/minimax_m3/common/ops/sparse_attn.py":329:24)
#loc61 = loc("/usr/local/lib/python3.12/dist-packages/vllm/models/minimax_m3/common/ops/sparse_attn.py":329:44)
#loc62 = loc("/usr/local/lib/python3.12/dist-packages/vllm/models/minimax_m3/common/ops/sparse_attn.py":329:35)
#loc63 = loc("/usr/local/lib/python3.12/dist-packages/vllm/models/minimax_m3/common/ops/sparse_attn.py":324:21)
#loc64 = loc("/usr/local/lib/python3.12/dist-packages/vllm/models/minimax_m3/common/ops/sparse_attn.py":324:14)
#loc65 = loc("/usr/local/lib/python3.12/dist-packages/vllm/models/minimax_m3/common/ops/sparse_attn.py":325:18)
#loc66 = loc("/usr/local/lib/python3.12/dist-packages/vllm/models/minimax_m3/common/ops/sparse_attn.py":325:14)
#loc67 = loc("/usr/local/lib/python3.12/dist-packages/vllm/models/minimax_m3/common/ops/sparse_attn.py":326:20)
#loc68 = loc("/usr/local/lib/python3.12/dist-packages/vllm/models/minimax_m3/common/ops/sparse_attn.py":326:31)
#loc69 = loc("/usr/local/lib/python3.12/dist-packages/vllm/models/minimax_m3/common/ops/sparse_attn.py":326:14)
#loc70 = loc("/usr/local/lib/python3.12/dist-packages/vllm/models/minimax_m3/common/ops/sparse_attn.py":327:23)
#loc71 = loc("/usr/local/lib/python3.12/dist-packages/vllm/models/minimax_m3/common/ops/sparse_attn.py":327:14)
#loc72 = loc("/usr/local/lib/python3.12/dist-packages/vllm/models/minimax_m3/common/ops/sparse_attn.py":328:20)
#loc73 = loc("/usr/local/lib/python3.12/dist-packages/vllm/models/minimax_m3/common/ops/sparse_attn.py":328:31)
#loc74 = loc("/usr/local/lib/python3.12/dist-packages/vllm/models/minimax_m3/common/ops/sparse_attn.py":328:14)
#loc75 = loc("/usr/local/lib/python3.12/dist-packages/vllm/models/minimax_m3/common/ops/sparse_attn.py":323:12)
#loc76 = loc("/usr/local/lib/python3.12/dist-packages/vllm/models/minimax_m3/common/ops/sparse_attn.py":334:22)
#loc77 = loc("/usr/local/lib/python3.12/dist-packages/vllm/models/minimax_m3/common/ops/sparse_attn.py":335:32)
#loc78 = loc("/usr/local/lib/python3.12/dist-packages/vllm/models/minimax_m3/common/ops/sparse_attn.py":335:45)
#loc79 = loc("/usr/local/lib/python3.12/dist-packages/vllm/models/minimax_m3/common/ops/sparse_attn.py":335:14)
#loc80 = loc("/usr/local/lib/python3.12/dist-packages/vllm/models/minimax_m3/common/ops/sparse_attn.py":336:24)
#loc81 = loc("/usr/local/lib/python3.12/dist-packages/vllm/models/minimax_m3/common/ops/sparse_attn.py":336:29)
#loc82 = loc("/usr/local/lib/python3.12/dist-packages/vllm/models/minimax_m3/common/ops/sparse_attn.py":336:14)
#loc83 = loc("/usr/local/lib/python3.12/dist-packages/vllm/models/minimax_m3/common/ops/sparse_attn.py":337:38)
#loc84 = loc("/usr/local/lib/python3.12/dist-packages/vllm/models/minimax_m3/common/ops/sparse_attn.py":337:31)
#loc85 = loc("/usr/local/lib/python3.12/dist-packages/vllm/models/minimax_m3/common/ops/sparse_attn.py":338:30)
#loc86 = loc("/usr/local/lib/python3.12/dist-packages/vllm/models/minimax_m3/common/ops/sparse_attn.py":338:25)
#loc87 = loc("/usr/local/lib/python3.12/dist-packages/vllm/models/minimax_m3/common/ops/sparse_attn.py":338:20)
#loc88 = loc("/usr/local/lib/python3.12/dist-packages/vllm/models/minimax_m3/common/ops/sparse_attn.py":339:22)
#loc89 = loc("/usr/local/lib/python3.12/dist-packages/vllm/models/minimax_m3/common/ops/sparse_attn.py":340:38)
#loc90 = loc("/usr/local/lib/python3.12/dist-packages/vllm/models/minimax_m3/common/ops/sparse_attn.py":340:32)
#loc91 = loc("/usr/local/lib/python3.12/dist-packages/vllm/models/minimax_m3/common/ops/sparse_attn.py":340:44)
#loc92 = loc("/usr/local/lib/python3.12/dist-packages/vllm/models/minimax_m3/common/ops/sparse_attn.py":340:24)
#loc93 = loc("/usr/local/lib/python3.12/dist-packages/vllm/models/minimax_m3/common/ops/sparse_attn.py":348:26)
#loc94 = loc("/usr/local/lib/python3.12/dist-packages/vllm/models/minimax_m3/common/ops/sparse_attn.py":348:44)
#loc95 = loc("/usr/local/lib/python3.12/dist-packages/vllm/models/minimax_m3/common/ops/sparse_attn.py":348:37)
#loc96 = loc("/usr/local/lib/python3.12/dist-packages/vllm/models/minimax_m3/common/ops/sparse_attn.py":343:21)
#loc97 = loc("/usr/local/lib/python3.12/dist-packages/vllm/models/minimax_m3/common/ops/sparse_attn.py":343:14)
#loc98 = loc("/usr/local/lib/python3.12/dist-packages/vllm/models/minimax_m3/common/ops/sparse_attn.py":344:18)
#loc99 = loc("/usr/local/lib/python3.12/dist-packages/vllm/models/minimax_m3/common/ops/sparse_attn.py":344:14)
#loc100 = loc("/usr/local/lib/python3.12/dist-packages/vllm/models/minimax_m3/common/ops/sparse_attn.py":345:20)
#loc101 = loc("/usr/local/lib/python3.12/dist-packages/vllm/models/minimax_m3/common/ops/sparse_attn.py":345:31)
#loc102 = loc("/usr/local/lib/python3.12/dist-packages/vllm/models/minimax_m3/common/ops/sparse_attn.py":345:14)
#loc103 = loc("/usr/local/lib/python3.12/dist-packages/vllm/models/minimax_m3/common/ops/sparse_attn.py":346:23)
#loc104 = loc("/usr/local/lib/python3.12/dist-packages/vllm/models/minimax_m3/common/ops/sparse_attn.py":346:14)
#loc105 = loc("/usr/local/lib/python3.12/dist-packages/vllm/models/minimax_m3/common/ops/sparse_attn.py":347:20)
#loc106 = loc("/usr/local/lib/python3.12/dist-packages/vllm/models/minimax_m3/common/ops/sparse_attn.py":347:31)
#loc107 = loc("/usr/local/lib/python3.12/dist-packages/vllm/models/minimax_m3/common/ops/sparse_attn.py":347:14)
#loc108 = loc("/usr/local/lib/python3.12/dist-packages/vllm/models/minimax_m3/common/ops/sparse_attn.py":342:12)
#loc109 = loc("/usr/local/lib/python3.12/dist-packages/vllm/models/minimax_m3/common/ops/sparse_attn.py":353:29)
#loc110 = loc("/usr/local/lib/python3.12/dist-packages/vllm/models/minimax_m3/common/ops/sparse_attn.py":353:39)
#loc111 = loc("/usr/local/lib/python3.12/dist-packages/vllm/models/minimax_m3/common/ops/sparse_attn.py":353:17)
#loc112 = loc("/usr/local/lib/python3.12/dist-packages/vllm/models/minimax_m3/common/ops/sparse_attn.py":355:47)
#loc113 = loc("/usr/local/lib/python3.12/dist-packages/vllm/models/minimax_m3/common/ops/sparse_attn.py":355:39)
#loc114 = loc("/usr/local/lib/python3.12/dist-packages/vllm/models/minimax_m3/common/ops/sparse_attn.py":355:55)
#loc115 = loc("/usr/local/lib/python3.12/dist-packages/vllm/models/minimax_m3/common/ops/sparse_attn.py":355:31)
#loc116 = loc("/usr/local/lib/python3.12/dist-packages/vllm/models/minimax_m3/common/ops/sparse_attn.py":355:23)
#loc117 = loc("/usr/local/lib/python3.12/dist-packages/vllm/models/minimax_m3/common/ops/sparse_attn.py":355:8)
#loc118 = loc("/usr/local/lib/python3.12/dist-packages/vllm/models/minimax_m3/common/ops/sparse_attn.py":358:8)
#loc119 = loc("/usr/local/lib/python3.12/dist-packages/vllm/models/minimax_m3/common/ops/sparse_attn.py":362:29)
#loc120 = loc("/usr/local/lib/python3.12/dist-packages/vllm/models/minimax_m3/common/ops/sparse_attn.py":362:58)
#loc121 = loc("/usr/local/lib/python3.12/dist-packages/vllm/models/minimax_m3/common/ops/sparse_attn.py":362:52)
#loc122 = loc("/usr/local/lib/python3.12/dist-packages/vllm/models/minimax_m3/common/ops/sparse_attn.py":362:80)
#loc123 = loc("/usr/local/lib/python3.12/dist-packages/vllm/models/minimax_m3/common/ops/sparse_attn.py":362:66)
#loc124 = loc("/usr/local/lib/python3.12/dist-packages/vllm/models/minimax_m3/common/ops/sparse_attn.py":363:26)
#loc125 = loc("/usr/local/lib/python3.12/dist-packages/vllm/models/minimax_m3/common/ops/sparse_attn.py":363:20)
#loc126 = loc("/usr/local/lib/python3.12/dist-packages/vllm/models/minimax_m3/common/ops/sparse_attn.py":365:29)
#loc127 = loc("/usr/local/lib/python3.12/dist-packages/vllm/models/minimax_m3/common/ops/sparse_attn.py":365:21)
#loc128 = loc("/usr/local/lib/python3.12/dist-packages/vllm/models/minimax_m3/common/ops/sparse_attn.py":365:50)
#loc129 = loc("/usr/local/lib/python3.12/dist-packages/vllm/models/minimax_m3/common/ops/sparse_attn.py":365:42)
#loc130 = loc("/usr/local/lib/python3.12/dist-packages/vllm/models/minimax_m3/common/ops/sparse_attn.py":365:71)
#loc131 = loc("/usr/local/lib/python3.12/dist-packages/vllm/models/minimax_m3/common/ops/sparse_attn.py":365:63)
#loc132 = loc("/usr/local/lib/python3.12/dist-packages/vllm/models/minimax_m3/common/ops/sparse_attn.py":370:8)
#loc133 = loc("/usr/local/lib/python3.12/dist-packages/vllm/models/minimax_m3/common/ops/sparse_attn.py":372:30)
#loc134 = loc("/usr/local/lib/python3.12/dist-packages/vllm/models/minimax_m3/common/ops/sparse_attn.py":372:21)
#loc135 = loc("/usr/local/lib/python3.12/dist-packages/vllm/models/minimax_m3/common/ops/sparse_attn.py":374:31)
#loc136 = loc("/usr/local/lib/python3.12/dist-packages/vllm/models/minimax_m3/common/ops/sparse_attn.py":374:23)
#loc137 = loc("/usr/local/lib/python3.12/dist-packages/vllm/models/minimax_m3/common/ops/sparse_attn.py":374:52)
#loc138 = loc("/usr/local/lib/python3.12/dist-packages/vllm/models/minimax_m3/common/ops/sparse_attn.py":374:44)
#loc139 = loc("/usr/local/lib/python3.12/dist-packages/vllm/models/minimax_m3/common/ops/sparse_attn.py":374:73)
#loc140 = loc("/usr/local/lib/python3.12/dist-packages/vllm/models/minimax_m3/common/ops/sparse_attn.py":374:65)
#loc141 = loc("/usr/local/lib/python3.12/dist-packages/vllm/models/minimax_m3/common/ops/sparse_attn.py":379:8)
#loc142 = loc("/usr/local/lib/python3.12/dist-packages/vllm/models/minimax_m3/common/ops/sparse_attn.py":381:23)
#loc143 = loc("/usr/local/lib/python3.12/dist-packages/vllm/models/minimax_m3/common/ops/sparse_attn.py":381:4)
#loc145 = loc("/usr/local/lib/python3.12/dist-packages/triton/language/standard.py":293:36)
#loc147 = loc("/usr/local/lib/python3.12/dist-packages/triton/language/standard.py":293:11)
#loc148 = loc("/usr/local/lib/python3.12/dist-packages/triton/language/standard.py":293:4)
#loc150 = loc("/usr/local/lib/python3.12/dist-packages/triton/language/standard.py":263:15)
#loc151 = loc("/usr/local/lib/python3.12/dist-packages/triton/language/standard.py":263:11)
#loc152 = loc("/usr/local/lib/python3.12/dist-packages/triton/language/standard.py":263:4)
#loc153 = loc("/usr/local/lib/python3.12/dist-packages/triton/language/standard.py":120:0)
#loc154 = loc("/usr/local/lib/python3.12/dist-packages/triton/language/standard.py":129:31)
#loc155 = loc("/usr/local/lib/python3.12/dist-packages/triton/language/standard.py":129:11)
#loc156 = loc("/usr/local/lib/python3.12/dist-packages/triton/language/standard.py":129:4)
#loc158 = loc("/usr/local/lib/python3.12/dist-packages/triton/language/standard.py":191:40)
#loc159 = loc("/usr/local/lib/python3.12/dist-packages/triton/language/standard.py":191:15)
#loc160 = loc("/usr/local/lib/python3.12/dist-packages/triton/language/standard.py":179:4)
#loc162 = loc("/usr/local/lib/python3.12/dist-packages/triton/language/standard.py":170:27)
#loc163 = loc("/usr/local/lib/python3.12/dist-packages/triton/language/standard.py":170:11)
#loc164 = loc("/usr/local/lib/python3.12/dist-packages/triton/language/standard.py":170:4)
#loc166 = loc("/usr/local/lib/python3.12/dist-packages/triton/language/standard.py":140:30)
#loc167 = loc("/usr/local/lib/python3.12/dist-packages/triton/language/standard.py":140:11)
#loc168 = loc("/usr/local/lib/python3.12/dist-packages/triton/language/standard.py":140:4)
#loc195 = loc("sm_scale_log2e"(#loc1))
#loc196 = loc("pid_b"(#loc4))
#loc197 = loc("pid_c"(#loc5))
#loc198 = loc("req_id"(#loc6))
#loc199 = loc("q_offset"(#loc7))
#loc200 = loc("q_offset"(#loc8))
#loc201 = loc("pid_h"(#loc9))
#loc202 = loc("chunk_size_topk"(#loc10))
#loc203 = loc("chunk_size_topk"(#loc11))
#loc204 = loc("chunk_size_topk"(#loc12))
#loc205 = loc("chunk_start_topk"(#loc13))
#loc206 = loc("chunk_end_compiletime"(#loc14))
#loc207 = loc("seq_len"(#loc16))
#loc208 = loc("seq_len"(#loc17))
#loc209 = loc("query_pos"(#loc18))
#loc210 = loc("query_pos"(#loc19))
#loc211 = loc("kv_len"(#loc20))
#loc212 = loc("kv_len"(#loc21))
#loc213 = loc("off_t"(#loc22))
#loc214 = loc("idx_base"(#loc23))
#loc215 = loc("idx_base"(#loc24))
#loc216 = loc("idx_base"(#loc25))
#loc217 = loc("idx_base"(#loc26))
#loc218 = loc("topk_idx"(#loc27))
#loc219 = loc("topk_idx"(#loc28))
#loc220 = loc("topk_idx"(#loc29))
#loc221 = loc("topk_idx"(#loc30))
#loc222 = loc("real_topk"(#loc31))
#loc223 = loc("real_topk"(#loc32))
#loc224 = loc("real_topk"(#loc33))
#loc225 = loc("chunk_end_topk"(#loc34))
#loc226 = loc("off_n"(#loc35))
#loc227 = loc("off_d"(#loc36))
#loc228 = loc("d_mask"(#loc37))
#loc229 = loc("bt_row"(#loc38))
#loc230 = loc("bt_row"(#loc39))
#loc231 = loc("m_i"(#loc40))
#loc232 = loc("lse_i"(#loc41))
#loc233 = loc("acc_o"(#loc42))
#loc234 = loc("q_ptrs"(#loc43))
#loc235 = loc("q_ptrs"(#loc44))
#loc236 = loc("q_ptrs"(#loc45))
#loc237 = loc("q_ptrs"(#loc46))
#loc238 = loc("q_ptrs"(#loc47))
#loc239 = loc("q"(#loc48))
#loc240 = loc("cur_idx_ptr"(#loc49))
#loc241 = loc("cur_idx_ptr"(#loc50))
#loc242 = loc("m_i"(#loc51))
#loc243 = loc("blk"(#loc52))
#loc244 = loc("cur_idx_ptr"(#loc53))
#loc245 = loc("c"(#loc54))
#loc246 = loc("page"(#loc55))
#loc247 = loc("page"(#loc56))
#loc248 = loc("page"(#loc57))
#loc249 = loc("pos"(#loc58))
#loc250 = loc("pos_mask"(#loc59))
#loc251 = loc("k"(#loc60))
#loc252 = loc("k"(#loc61))
#loc253 = loc("k"(#loc62))
#loc254 = loc("k"(#loc63))
#loc255 = loc("k"(#loc64))
#loc256 = loc("k"(#loc65))
#loc257 = loc("k"(#loc66))
#loc258 = loc("k"(#loc67))
#loc259 = loc("k"(#loc68))
#loc260 = loc("k"(#loc69))
#loc261 = loc("k"(#loc70))
#loc262 = loc("k"(#loc71))
#loc263 = loc("k"(#loc72))
#loc264 = loc("k"(#loc73))
#loc265 = loc("k"(#loc74))
#loc266 = loc("k"(#loc75))
#loc267 = loc("qk"(#loc76))
#loc268 = loc("qk"(#loc77))
#loc269 = loc("qk"(#loc78))
#loc270 = loc("qk"(#loc79))
#loc271 = loc("qk"(#loc80))
#loc272 = loc("qk"(#loc81))
#loc273 = loc("qk"(#loc82))
#loc274 = loc("m_ij"(#loc83))
#loc275 = loc("m_ij"(#loc84))
#loc276 = loc("p"(#loc85))
#loc277 = loc("p"(#loc86))
#loc278 = loc("p"(#loc87))
#loc279 = loc("l_ij"(#loc88))
#loc280 = loc("acc_o"(#loc89))
#loc281 = loc("acc_o"(#loc90))
#loc282 = loc("acc_o"(#loc91))
#loc283 = loc("acc_o"(#loc92))
#loc284 = loc("v"(#loc93))
#loc285 = loc("v"(#loc94))
#loc286 = loc("v"(#loc95))
#loc287 = loc("v"(#loc96))
#loc288 = loc("v"(#loc97))
#loc289 = loc("v"(#loc98))
#loc290 = loc("v"(#loc99))
#loc291 = loc("v"(#loc100))
#loc292 = loc("v"(#loc101))
#loc293 = loc("v"(#loc102))
#loc294 = loc("v"(#loc103))
#loc295 = loc("v"(#loc104))
#loc296 = loc("v"(#loc105))
#loc297 = loc("v"(#loc106))
#loc298 = loc("v"(#loc107))
#loc299 = loc("v"(#loc108))
#loc300 = loc("acc_o"(#loc109))
#loc301 = loc("acc_o"(#loc110))
#loc302 = loc("acc_o"(#loc111))
#loc303 = loc("lse_i"(#loc112))
#loc304 = loc("lse_i"(#loc113))
#loc305 = loc("lse_i"(#loc114))
#loc306 = loc("lse_i"(#loc115))
#loc307 = loc("lse_i"(#loc116))
#loc308 = loc("scale"(#loc119))
#loc309 = loc("scale"(#loc120))
#loc310 = loc("scale"(#loc121))
#loc311 = loc("scale"(#loc122))
#loc312 = loc("scale"(#loc123))
#loc313 = loc("acc_o"(#loc124))
#loc314 = loc("acc_o"(#loc125))
#loc315 = loc("o_ptrs"(#loc126))
#loc316 = loc("o_ptrs"(#loc127))
#loc317 = loc("o_ptrs"(#loc128))
#loc318 = loc("o_ptrs"(#loc129))
#loc319 = loc("o_ptrs"(#loc130))
#loc320 = loc("o_ptrs"(#loc131))
#loc321 = loc("o_ptrs"(#loc132))
#loc322 = loc("lse_ptrs"(#loc135))
#loc323 = loc("lse_ptrs"(#loc136))
#loc324 = loc("lse_ptrs"(#loc137))
#loc325 = loc("lse_ptrs"(#loc138))
#loc326 = loc("lse_ptrs"(#loc139))
#loc327 = loc("lse_ptrs"(#loc140))
#loc328 = loc("lse_ptrs"(#loc141))
#loc336 = loc("lse_i"(#loc242))
#loc337 = loc("acc_o"(#loc336))
#loc338 = loc("cur_idx_ptr"(#loc337))
